trained_models/600967.SS.csv.pth (torch, 108751 bytes, 8 tensors)

fc1.weight f4 [128, 12]
000000 91 bb b0 be 43 32 77 be 66 c4 71 be 4b 47 81 bd
       -0.34518102 -0.24140267 -0.23610076 -0.06312426
000010 44 bf 37 be 39 6f da be d2 bb 46 be ba b3 95 bd
       -0.17944056 -0.4266298 -0.19407585 -0.07309671
000020 a6 84 3c be 53 e3 5d 3e 19 f6 41 3b 65 79 f5 be
       -0.18409976 0.21668749 0.0029596149 -0.4794418
000030 79 4d 96 be 16 b6 37 3e a2 fe 0c 3d 97 db 9e 3d
       -0.29355982 0.17940554 0.034422524 0.07756727
000040 ec 9c d4 bd 63 f1 c4 3d 01 6b 90 bd a5 ec 51 bd
       -0.10381493 0.09616353 -0.070516594 -0.051251072
000050 7e 0f e6 bd 56 1e 1b be e7 c7 cd bb df fb b0 be
       -0.11233424 -0.15148291 -0.0062799337 -0.34567162
000060 96 03 b9 be e0 81 9b be 4b 83 7c 3d e0 e9 f9 3c
       -0.36135548 -0.30372524 0.06164865 0.030507028
000070 17 c0 cf 3d 35 8e 94 bc f9 78 c0 bd 7b 89 0e 3e
       0.1014406 -0.018134216 -0.09398074 0.13919632
000080 8b 5e 1f be 9c 03 06 bd ab 7e b1 be 2d 72 a6 3d
       -0.15563409 -0.032718286 -0.34666952 0.08127246
000090 03 a8 70 be 79 ec 66 bd 2e 0c 51 bd 7a 77 25 be
       -0.23501591 -0.05637786 -0.051037006 -0.16158858
0000a0 6b 59 ad 3d b5 9e 31 3d 4f 39 11 be 66 20 a9 3d
       0.08464321 0.043364245 -0.14182018 0.08258133
0000b0 98 31 c2 3d 09 ca 5a 3e cc a3 bf 3e 5d 22 81 3e
       0.094821155 0.21366133 0.37429655 0.2522153
0000c0 20 46 9f be d8 7f 39 be 46 a5 58 be c2 a4 67 be
       -0.3110819 -0.18115175 -0.21156797 -0.22621444
0000d0 1a 75 4a be a8 63 4c bd b9 0b 2c bc 82 e5 fc 3d
       -0.19771233 -0.049899727 -0.010500842 0.12348463
0000e0 b8 ab e9 bb e2 3d b7 be 06 7a 91 be 3c f4 04 3d
       -0.007131066 -0.357894 -0.2841341 0.032459483
0000f0 7f 67 4f be ed 2f 47 be b6 15 55 be 7c 0c 23 be
       -0.20254324 -0.19451876 -0.20809063 -0.15922731
000100 da e8 23 3e a0 19 78 3e 23 a5 58 3e 20 c8 89 3d
       0.16006795 0.24228525 0.21156745 0.06727624
000110 03 b5 fd 3d a7 7d a3 3e 87 ba 0a 3e 33 2d c7 be
       0.12388041 0.31931803 0.13547717 -0.38901672
000120 e7 f6 03 be 9e 46 24 bd 0d bd 12 be 3c 39 9b be
       -0.12887155 -0.04010641 -0.1432993 -0.30317104
000130 42 ab ba bd 23 a4 90 bd 48 aa 01 be 48 c6 80 be
       -0.09114696 -0.070625566 -0.12662613 -0.25151277
000140 90 3f ac bd 93 f7 07 3e c5 23 73 be d9 8b ab be
       -0.08410561 0.13278036 -0.23744114 -0.33505133
000150 e6 c3 d1 3a d9 ad d8 3d 11 0a 8b be 5b 9c f8 be
       0.0016003817 0.10580034 -0.27156118 -0.4855679
000160 f0 6a 9f be 89 20 c1 3e 8d 09 89 3e aa 03 8e bd
       -0.31136274 0.37720135 0.267651 -0.069342926
000170 c9 32 e8 3c 31 ca be be 19 66 86 be 69 6d cb 3d
       0.028344529 -0.37263635 -0.2624977 0.09932978
000180 43 63 92 3c 08 01 7c bd ff d0 a0 bd 04 bb a2 bd
       0.017869597 -0.06152442 -0.07852363 -0.07945827
000190 17 1f c6 3c d3 a6 62 3e 87 6b 70 be 8b 47 0e 3d
       0.024184747 0.22133951 -0.23478518 0.034736197
0001a0 dc 3f 9f 3d c9 7f 92 3d 1d 82 ce 3c cc a3 4c 3e
       0.07775852 0.07153279 0.025208527 0.19984359
0001b0 fd a9 7c 3d ff 43 31 3e 67 7a 16 bd b5 db 7c 3e
       0.06168555 0.17311095 -0.036737826 0.24693187
0001c0 97 2c fb 3d 73 df 7d 3d 8e e9 d5 be 83 d9 39 bd
       0.12264364 0.061980676 -0.4177975 -0.04537345
0001d0 c5 ec e8 be f4 2e 9e be 66 59 1f be 4e 4a a4 be
       -0.4549314 -0.30895197 -0.15561447 -0.3208794
0001e0 3c a2 fe be de 72 a5 bc e6 fd 8b be fd 1c 00 3e
       -0.4973315 -0.020196375 -0.27342147 0.12511058
0001f0 ed 5d b8 3c 7b 3c 8b be da 6d db 3d 7c be 6c 3e
       0.022505725 -0.2719458 0.10714312 0.23119539
000200 88 b6 92 be 70 f3 4a be 9d 93 16 bd f4 7f 55 3e
       -0.28654885 -0.19819427 -0.03676187 0.20849591
000210 2c fa 8f 3e 71 47 11 3e 59 c7 4d be 40 50 c1 3d
       0.28120553 0.14187409 -0.20095576 0.094391346
000220 89 1a b8 3e db 2d 05 be c2 11 2d be 2e 35 a1 3e
       0.35957745 -0.13005774 -0.16901305 0.31485885
000230 e1 78 bb 3e 7d 19 fa 3c d5 a5 c0 bd d7 e4 d8 bd
       0.3661566 0.030529732 -0.0940663 -0.10590523
000240 a0 10 9b bd 62 18 af 3e 5b 6f 0c be a8 b0 ec 3d
       -0.0757153 0.3419829 -0.13714354 0.11557132
000250 aa 0c cc bb 29 f9 53 be 90 8a 96 be f5 6e 29 3e
       -0.0062270956 -0.20700516 -0.2940259 0.16546233
000260 bf aa d6 bd e3 c5 90 be aa 5c b2 3e 29 5e 26 bb
       -0.10481786 -0.28275976 0.34836322 -0.0025385714
000270 b7 2d de be b7 db 92 3e df 21 88 bc 78 7b 92 3d
       -0.43394253 0.28683254 -0.016617713 0.07152456
000280 0f fe 16 3e 2e b9 06 be de c7 62 3e b9 c1 e7 3e
       0.14745353 -0.13156578 0.22146556 0.45264986
000290 e7 b2 70 3e 5b 84 83 be 72 43 ce bd 86 30 37 3d
       0.23505746 -0.25686917 -0.10071458 0.04472401
0002a0 e8 3a c1 be 27 23 f4 bc 4d 20 c0 be 1a 63 9d 3e
       -0.37740254 -0.029801918 -0.37524644 0.3073967
0002b0 bc 53 17 be 1c 97 c3 bd 69 80 97 bd 55 4c a3 3d
       -0.14778036 -0.09550306 -0.07397539 0.079735436
0002c0 28 ea 04 3e e5 f6 77 3e 45 e6 bc be e5 1b 08 3e
       0.12979949 0.24215277 -0.36894432 0.13291891
0002d0 5c 56 68 3e 8a 4c cb 3d 39 24 f9 bd 79 64 42 be
       0.22689193 0.09926708 -0.12165112 -0.1898364
0002e0 0e 2a 46 bc b5 f0 26 3e 64 dc a6 3d 30 73 b4 3e
       -0.012094988 0.1630276 0.08147505 0.3524413
0002f0 82 90 f8 bc 72 3c 28 be 86 c5 55 be 83 47 77 bd
       -0.030342344 -0.16429308 -0.2087613 -0.060370933
000300 7e ac 2b be c7 f8 98 be 10 fd 02 be ed 4a 82 3d
       -0.1676502 -0.29877302 -0.12791848 0.06361947
000310 df 86 22 3c 86 96 fa bc 70 b4 b5 3d 57 de 78 be
       0.009919851 -0.030589353 0.08872306 -0.24303566
000320 b1 ed 24 be 58 4b be be e6 23 5c be 7e 5c b7 bd
       -0.16106297 -0.37166858 -0.21498069 -0.08953188
000330 cf 94 df 3d 05 b3 89 be 35 bc 86 be 5d 95 fe 3d
       0.10917055 -0.26894394 -0.26315466 0.124308325
000340 29 aa 94 bd 43 87 18 be 19 cf b6 3d 72 6d 85 be
       -0.07259018 -0.14895348 0.089262195 -0.26060063
000350 3c 9e 06 3d 9f 48 01 be f9 c3 80 3e ff 42 c8 be
       0.032865748 -0.12625359 0.25149515 -0.39113614
000360 5e d9 02 3e fe 8a 09 3e 67 ea 4f be f1 9a de 3e
       0.12778232 0.13431928 -0.20304261 0.43477586
000370 9d 8b 7f bd bb 7e ba 3d ad 7b ad 3e a9 4d 08 3e
       -0.062389005 0.09106203 0.3388342 0.13310875
000380 24 e7 f2 bc 77 cf 21 3d 53 38 cd 3d 8d e7 f0 3c
       -0.029651232 0.039504495 0.100205086 0.029407287
000390 72 82 a7 3d 86 26 fd be 18 51 f3 3e 85 6e 26 3b
       0.08179177 -0.49443454 0.47522807 0.0025395465
0003a0 5a 15 29 be 33 78 0b be aa 66 fa 3e 92 36 06 3e
       -0.16512051 -0.13620071 0.4890645 0.13106754
0003b0 45 e0 ae 3c 7f 7a bc bd 79 f6 86 3e b8 6e 0b be
       0.021347174 -0.09203052 0.2635992 -0.13616455
0003c0 ee 7b ea be cf 67 94 3e b1 b7 65 be e5 df b9 3a
       -0.45797676 0.2898545 -0.22433354 0.0014181106
0003d0 a9 b6 d9 be b7 24 9e be 3b 79 46 3e ff da 01 bc
       -0.4252217 -0.30887386 0.19382183 -0.007925748
0003e0 9f ae 95 be 7c 0a 9f be d3 68 d6 3d 5f 64 14 be
       -0.29234788 -0.31062686 0.104692124 -0.14491414
0003f0 85 35 9c be 2e 2a 84 be 95 38 ad 3e 13 50 40 be
       -0.30509582 -0.2581343 0.3383223 -0.18780546

fc1.bias f4 [128]
000000 e2 b6 6f bd bb b8 43 3d 65 b4 8c 3d b2 48 69 3d
       -0.05852402 0.047783595 0.06870345 0.056954093
000010 b9 89 f2 bc 33 07 93 be 49 86 9a 3d a3 42 df bd
       -0.029606687 -0.2871643 0.07545144 -0.10901382
000020 b9 40 5a 3d d1 4e 72 be 2c 79 a1 bd b2 79 ab bd
       0.05328438 -0.23662879 -0.0788444 -0.08372821
000030 b7 25 44 3c 33 20 95 bd 37 50 b4 bc 97 d2 e8 3c
       0.011971883 -0.07281532 -0.022010906 0.02842073
000040 d8 53 68 3d 31 05 8d be f2 c1 be bd fd 12 86 be
       0.056720585 -0.27543023 -0.09314336 -0.26186362
000050 a7 d2 38 be 73 3b 5d be bf f9 fd bd ea d4 99 be
       -0.18049107 -0.2160471 -0.12401151 -0.30045253
000060 60 6e 99 bd b7 99 f2 3d a3 2e 27 bd 46 e6 3d be
       -0.074917555 0.11845725 -0.04081596 -0.18544874
000070 94 3c 16 be 74 a1 f8 3d be b5 ae bd 12 dc c9 3d
       -0.14671546 0.1214017 -0.08530758 0.09856428
000080 f9 bf 7f be 90 82 a9 bd 5f eb ab bd 45 1c 25 be
       -0.24975576 -0.08276856 -0.08394503 -0.16124065
000090 4a 75 e7 bd 62 b5 89 bd cf 79 83 3b 69 a3 a9 3d
       -0.11301668 -0.06724049 0.0040123235 0.08283121
0000a0 be 6d 23 bd 29 11 65 be df fc 6f bc b8 e2 16 bb
       -0.03989958 -0.22369827 -0.0146476915 -0.0023023318
0000b0 7f 20 f9 bd fc 47 03 be a2 ec 46 be 02 76 c6 bd
       -0.12164401 -0.12820429 -0.19426206 -0.09690477
0000c0 6d 74 5a be 8b 21 ec 3d bf 48 c1 3d 69 c8 75 bc
       -0.21333475 0.11529835 0.09437703 -0.015001395
0000d0 b3 55 9e bd d0 52 23 bc 79 83 f0 bd 76 38 2e be
       -0.077311896 -0.0099684745 -0.117438264 -0.17013726
0000e0 fa 61 06 be f5 73 80 be 38 01 11 3e c3 5e 80 be
       -0.13123313 -0.25088468 0.14160621 -0.25072297
0000f0 38 5a eb 3d b5 b7 82 be 12 84 37 bc af 89 89 3d
       0.11491817 -0.25530782 -0.011200922 0.06715714
000100 01 56 74 be 8f a5 4d be c8 b6 a2 be 2e 97 43 3c
       -0.23860933 -0.20082687 -0.31780076 0.0119378995
000110 49 4b 1b 39 8d 9f 99 bd cd 3e c6 3d 78 42 2e be
       0.00014809998 -0.07501135 0.09679947 -0.17017543
000120 e9 c6 9f bd 8a 14 51 3d 17 48 93 3d eb 9c 0b 3e
       -0.07801611 0.05104498 0.071914844 0.13634078
000130 de 64 99 be 76 5b 43 be 87 5c 8f 3d b5 82 7b 3d
       -0.29959768 -0.19077858 0.0700007 0.06140395
000140 18 91 41 be 45 06 29 be 27 1d 3d bd 96 95 b2 bd
       -0.18903005 -0.16506298 -0.04617038 -0.087199375
000150 46 eb de 3d d9 b1 57 bd 09 05 85 be cf 9c 78 be
       0.108847186 -0.052659843 -0.25980404 -0.24278568
000160 3b cc 15 3c f8 44 9a 3d e5 25 6b be 0f b2 49 be
       0.009142931 0.07532686 -0.22963674 -0.1969683
000170 dc f1 a3 3b 9c 53 93 3c 30 55 26 b9 30 54 b8 bc
       0.005003197 0.017984204 -0.00015862728 -0.022501081
000180 60 00 45 be 74 c7 75 be fe 4a 25 be 37 bb 55 bc
       -0.19238424 -0.24001867 -0.16141888 -0.013045124
000190 db 39 8d 3d e7 2b 3d be b1 76 d1 3d fa 65 64 be
       0.06895801 -0.18473779 0.10227717 -0.22304526
0001a0 49 17 78 3d 08 40 59 be 86 25 41 3d 16 53 a6 3c
       0.06056908 -0.21215832 0.047154926 0.02030329
0001b0 b5 7a 79 be 62 80 af 3d 75 1e 6d 3c 89 2d 6a bb
       -0.24363215 0.08569409 0.014472594 -0.0035732707
0001c0 a4 3c 97 bd 2d 9b a5 bd 30 70 9c be 6d 91 07 be
       -0.07384613 -0.08086238 -0.30554342 -0.1323907
0001d0 76 7a 63 bd 56 19 16 bd c2 8d 9e be c5 2b 64 be
       -0.05553671 -0.036645256 -0.30967528 -0.22282322
0001e0 54 38 b5 bd 07 b4 62 be 23 e3 82 bd 62 31 b4 3d
       -0.08848634 -0.22138987 -0.06390979 0.087984815
0001f0 b3 63 6d be 10 9f 00 3d 83 e9 35 be 46 30 4f be
       -0.23182563 0.031401694 -0.17764859 -0.20233259

fc2.weight f4 [128, 128]
000000 e9 b6 70 3c e4 75 f7 3c 13 31 55 bd ac 1e e9 bc
       0.014692047 0.030207582 -0.052048754 -0.028457008
000010 f9 07 94 3e cd 07 9d be bb dc 2d 3d 91 f6 26 be
       0.28912333 -0.30670014 0.042446833 -0.16304995
000020 9a 3b e5 bc 52 8d 79 3c a5 5b bf be f7 b3 0e 3c
       -0.027982522 0.015231447 -0.37374607 0.008709899
000030 48 8c 06 3d 63 99 99 bd 12 45 0c be a9 87 af bd
       0.032848626 -0.07499959 -0.13698223 -0.08570797
000040 3f da 98 bd 37 07 0e 3c 68 cf dc 3d e7 80 83 be
       -0.07463502 0.008668712 0.10781747 -0.25684282
000050 06 cc 20 3e fc 3c 07 be c6 5a 1e be 50 a4 fe bd
       0.15702829 -0.13206857 -0.15464315 -0.12433684
000060 bf e2 55 be 26 73 81 be 1f e5 a7 bd 7d f4 0a bd
       -0.20887278 -0.25283164 -0.08197998 -0.03392457
000070 3c c8 ff bc df d0 f8 3d 77 9a 87 bd eb af 97 bd
       -0.031223409 0.12149214 -0.06621259 -0.074066006
000080 9b 89 5a be fe 3d a1 be f5 ac 8e 3d 38 9a 2e be
       -0.21341555 -0.3149261 0.06966583 -0.17051017
000090 de b8 06 3e 18 7a 2a bd b6 f6 ac bd 8e 90 1e bc
       0.13156459 -0.041620344 -0.08445494 -0.009678019
0000a0 c9 b6 e5 be 40 2e 0a bd e8 3d a9 bc 36 a4 a1 bd
       -0.44866017 -0.033735514 -0.020659402 -0.07892649
0000b0 ae 5b 98 be f1 30 74 be 43 a0 42 bd 65 2e de bd
       -0.29757446 -0.23846795 -0.04751612 -0.10848693
0000c0 09 be 45 be 12 92 05 3c 27 37 b0 3c 07 ce 23 3b
       -0.19310774 0.008152502 0.021510674 0.0024994628
0000d0 54 8a f2 bb 4e 3e 4b 3d 5e 48 10 3e 8c f8 1e be
       -0.007401744 0.049619965 0.14090106 -0.155245
0000e0 38 7e db 3d 36 10 84 be 96 94 bb bc 4b 3f 2b bc
       0.10717434 -0.25793618 -0.022898 -0.010452102
0000f0 4b cd c8 3d 17 80 b6 bd e0 52 89 bd a2 6f ac 3d
       0.098047815 -0.0891115 -0.0670526 0.0841973
000100 32 b7 a5 bd a1 7d 26 3e 14 09 32 be f0 13 12 be
       -0.08091582 0.16258861 -0.17386276 -0.14265418
000110 cb c8 ad 3d 96 6f 8b 3c 79 39 d7 be b8 70 66 be
       0.08485564 0.017020982 -0.42036036 -0.22503936
000120 c2 39 01 be 3d 2c 56 bb cb f1 46 3d 0c f9 16 be
       -0.12619689 -0.0032680177 0.048570435 -0.14743441
000130 50 49 31 be d9 c8 d6 bb 26 4c 07 be 71 f2 d6 bc
       -0.17313123 -0.0065547046 -0.13212642 -0.026238652
000140 7f 2c 99 bd c1 fa 12 be 82 4f 3c bd e1 23 81 3d
       -0.0747919 -0.14353468 -0.045974262 0.063056715
000150 83 54 13 be 05 2d 25 3d fa 66 90 bd dc 80 e0 bd
       -0.14387707 0.040326137 -0.07050891 -0.10962078
000160 d8 e6 46 3d 15 00 5f bd 57 46 61 3e 90 79 33 be
       0.048559994 -0.054443438 0.21999489 -0.17526841
000170 a6 31 a4 3d 25 14 64 bb 02 3f 86 bd 37 ce 0f be
       0.08017282 -0.0034802046 -0.065549865 -0.14043508
000180 d4 8d e7 bd cf 58 a9 bc 91 26 9c bd 54 17 11 3e
       -0.113063484 -0.02067223 -0.076245435 0.14169055
000190 32 d5 0b 3b 3f e5 9f be db e2 79 bc ef c6 66 be
       0.002133679 -0.31229588 -0.01525184 -0.22536825
0001a0 fc 3b 8f be 8d 9d 10 be 6c 99 2e be c0 1f 1e be
       -0.27975452 -0.14122601 -0.17050713 -0.15441799
0001b0 4b 5e e3 bd c8 d5 5d bd 63 f6 e7 3c 71 97 f2 be
       -0.11101969 -0.054158956 0.028315729 -0.47381166
0001c0 4f bc 0e 3e d5 13 ce bd b9 9d e7 3b b8 8b 1f 3e
       0.13939022 -0.100623764 0.0070683626 0.15580642
0001d0 d4 45 10 3d 29 07 ab be 17 13 1c be c4 6a b9 be
       0.035222843 -0.334039 -0.15241657 -0.36214268
0001e0 03 fc 34 be 0f 2c 4b bc a0 0c 1d 3e 38 14 3b 3c
       -0.1767426 -0.012400641 0.15336847 0.011418395
0001f0 f5 f9 8b 3b 0a e3 05 be 97 d2 d6 3c 06 68 06 3d
       0.0042717406 -0.1307489 0.026223464 0.03281405
000200 13 9d f9 bd f3 e8 ba 3c 53 00 36 bd 89 ed 17 3e
       -0.12188163 0.022816157 -0.044433903 0.14836706
000210 54 81 66 be c2 95 65 be 19 23 23 bd de a1 b8 bc
       -0.22510272 -0.2242041 -0.039828394 -0.022538122
000220 23 9f ed 3c 40 e1 06 bf 68 fa 60 be c4 20 02 bc
       0.029006546 -0.52687454 -0.21970522 -0.007942382
000230 6d bf 0f 3d 3e be 6f 3d cb 44 5f bd 0b ce 71 3d
       0.035094667 0.05853104 -0.054508965 0.05903439
000240 5b 24 1a 3d 90 f7 aa bd 6b e9 15 bd 79 08 0a be
       0.037632328 -0.08348 -0.036599558 -0.13479795
000250 b8 a8 7f 3b 9c df aa bd a7 ac fc 3d 06 c5 3b be
       0.0039010476 -0.08343431 0.12337618 -0.18336877
000260 a3 20 01 be 59 2d b7 39 ad d2 07 3e fb 96 89 bd
       -0.12610106 0.00034938267 0.1326396 -0.0671825
000270 66 3f 86 bd c0 b8 95 3c a1 92 42 bd 3d e5 52 bd
       -0.06555061 0.018276572 -0.047503117 -0.05148815
000280 17 1a b7 3d fb cb a1 3c f9 64 f9 bc 53 88 b9 be
       0.08940523 0.019750586 -0.030443655 -0.3623682
000290 14 fb 82 3d 75 15 0b 3c ee 69 ee 3d 5c 46 90 3d
       0.063955456 0.0084890025 0.11641298 0.0704467
0002a0 d8 7e 52 3d a7 7e 8a be a7 4c 93 3d 2d 47 1a bd
       0.0513905 -0.27049753 0.07192355 -0.037665535
0002b0 c3 ac d7 bd 2f 39 d2 3d 3e e7 06 be 69 64 54 3d
       -0.105309986 0.10264813 -0.1317415 0.05185357
0002c0 88 75 ff bc 44 8c a6 3c 68 56 90 3d 12 5d f1 bb
       -0.031183973 0.020330556 0.07047731 -0.007365831
0002d0 53 d8 8c 39 39 d6 4a 3d c0 0e c0 bc 55 c6 14 bb
       0.00026864055 0.049520705 -0.023444533 -0.0022701223
0002e0 97 38 77 bc 8d b9 11 be 88 d2 12 3d 05 27 fc bd
       -0.015089176 -0.14230938 0.03584531 -0.1231213
0002f0 0d 22 19 3d 08 53 2d 3e 67 13 06 bd 39 c3 36 bd
       0.03738599 0.16926205 -0.032733347 -0.044619773
000300 4a ec 7d be aa 41 90 bb 0c a0 21 be d4 1f a8 be
       -0.24797168 -0.004402359 -0.1578371 -0.32836783
000310 cf 77 28 3d 99 3d c7 bc 1a 46 16 3e 27 30 f2 bd
       0.041129883 -0.024321364 0.14675179 -0.118255906
000320 92 16 7d 3d 3a d0 2a 3c e4 f4 35 bd 97 52 c7 bd
       0.061789103 0.010425622 -0.044423 -0.0973255
000330 e8 22 9a be 3f d5 41 bd 81 fa 16 bd 48 cc 50 3e
       -0.30104756 -0.047322508 -0.036859993 0.20390427
000340 69 ff 08 bd 58 e6 5e bc 1d 7c 65 3d de f4 20 bd
       -0.033446703 -0.013604723 0.056026567 -0.039296024
000350 6a 06 95 bc 31 67 6c 3c 39 f3 a2 3d 61 56 a0 bd
       -0.018191535 0.0144289 0.07956547 -0.078289755
000360 2f b9 f8 bb c3 6f b0 bd 37 b4 96 bd a8 96 f6 bd
       -0.007590435 -0.08615067 -0.07358592 -0.12040454
000370 69 e1 0b 3d e4 2b 1f 3c ac d5 ae 3c 78 27 b6 3d
       0.034150515 0.009715054 0.021342121 0.08894247
000380 0a 59 03 bd 46 68 f0 be 63 63 e8 bd 22 8e f9 bc
       -0.032067336 -0.46954554 -0.113470815 -0.030463282
000390 32 83 4d 3d fb 05 e9 bd 29 4a 31 3d c3 0f 35 be
       0.050173946 -0.11378094 0.043283615 -0.17681794
0003a0 f6 42 62 3d 3a 23 65 bc 76 da 58 bd 72 7b 6d bc
       0.05523964 -0.013985449 -0.052942716 -0.014494764
0003b0 8e 6b 5b be 06 0a 78 3d 44 b7 85 3c e4 e3 d7 bd
       -0.21427748 0.060556434 0.01632274 -0.105415136
0003c0 ff e0 a6 bc 7c e5 05 bd 0e 41 62 be 5d 69 77 be
       -0.020370958 -0.032689556 -0.22095129 -0.24161287
0003d0 1e 8c f8 bd a7 f2 f7 3d 7e 7e c4 bd aa c1 92 be
       -0.121361 0.12106829 -0.09594439 -0.2866338
0003e0 81 cf 19 3e df 90 b9 bc 48 6b 3f 3c 30 f3 58 3d
       0.15020563 -0.022652088 0.011683293 0.052966297
0003f0 40 9b 9f 3c 26 bc 39 be 29 19 ff bd 71 a4 35 be
       0.019483209 -0.18138179 -0.12455971 -0.1773851

fc2.bias f4 [128]
000000 e1 3c c1 3d a7 5d 80 3e ac 7f 53 3d e7 de 8a bc
       0.0943544 0.2507145 0.05163543 -0.016951991
000010 20 fe db bd 75 67 92 bd 1d 84 5f 3e f8 fb 91 3b
       -0.1074183 -0.07148639 0.21827741 0.004455086
000020 d0 6c 81 3d 82 95 ce 3d f3 d2 c2 3c f2 20 e4 bc
       0.063195825 0.1008711 0.023782229 -0.02784774
000030 9e 3f 41 bb 3c 54 da 3d 34 d9 8d 3c f1 7e ee 3d
       -0.0029487382 0.10660598 0.017315485 0.11645306
000040 76 f5 ca bb 22 d4 21 3d 19 8b 2e bc 7e 05 90 3c
       -0.006193812 0.039508946 -0.010653281 0.017580744
000050 45 d7 ca 3c 2b d9 e8 3d f6 5c ec bd cd d6 c6 bd
       0.024760852 0.113695465 -0.115411684 -0.09708939
000060 2d 86 e7 3d 05 e0 db 3d f8 2e 83 bd 81 4c 25 3d
       0.11304889 0.10736088 -0.06405443 0.040356163
000070 fc b0 5d bb 06 02 15 3d 91 84 ab bc ed 02 eb bd
       -0.0033827415 0.036378883 -0.020937236 -0.114751674
000080 04 68 ab 3d ca 6f 5e 3d ef d2 de 3b 51 8c 03 3e
       0.08369449 0.05430583 0.0068000476 0.12846495
000090 5c 19 0c 3d f5 fd 51 3e c4 da f3 3c de d5 12 3e
       0.034203872 0.20507033 0.029767402 0.14339396
0000a0 c0 a5 75 3d 6d 6a 3a bd 83 d0 9d bd 6f 9f 79 3c
       0.059972525 -0.04551165 -0.07705786 0.015235766
0000b0 83 f5 b9 3b 26 87 94 3d 94 20 fb bb b7 d9 45 3e
       0.005675019 0.0725234 -0.0076637957 0.19321333
0000c0 23 85 b3 bd 61 f9 73 bd 43 97 bc bd 36 1f a5 3b
       -0.08765628 -0.059563998 -0.092085384 0.005039121
0000d0 d4 d6 1e bd 6f 88 bb bd 7f 26 39 3d 85 15 c4 3d
       -0.038779095 -0.09156882 0.04520273 0.09574417
0000e0 b3 7d 80 3d da aa 85 3d 79 7a 85 3d 39 67 c3 bd
       0.06273975 0.06526728 0.065175004 -0.095411725
0000f0 44 04 b5 3d f8 40 05 3e cb 33 d9 bd 89 24 a7 3d
       0.08838704 0.13013065 -0.10605582 0.081612654
000100 98 d0 6c bd 1a 0e 60 3b 46 e1 f7 bc 4f 3d 07 3e
       -0.057816118 0.0034188093 -0.030258786 0.13206981
000110 5a b5 53 bc a4 49 33 bc d9 99 c2 3d 9e 69 c3 3d
       -0.012921656 -0.01094285 0.09502 0.09541629
000120 93 83 ec bc 61 c0 89 bd 50 e7 f9 3d b8 74 c8 bc
       -0.028871333 -0.067261465 0.122023225 -0.024469718
000130 9a 0d 77 bb 91 f8 d7 3d a1 ae 3c 3d da d0 02 3e
       -0.0037697316 0.10545457 0.046064977 0.12774983
000140 da a0 e5 3d 38 a7 89 3c 96 d1 46 3d f7 01 e7 3d
       0.112123206 0.016803369 0.04853972 0.11279672
000150 2b 1d 52 3d ad 22 a4 3c 10 85 de 38 14 5e 08 bb
       0.051297348 0.020036066 0.0001061057 -0.0020808028
000160 2c a7 21 3d 6e 98 9a bc 72 0d 71 3e 63 4e 33 3d
       0.03946607 -0.018871512 0.23540285 0.043775927
000170 b8 7d 03 3e 02 c9 0a 3d 4f 19 72 bc de 1b fe 3c
       0.12840927 0.033883102 -0.014776542 0.031019147
000180 4d 43 9f 3e c2 19 2a bd ac c6 f0 3c b8 c7 d0 bd
       0.31106034 -0.04152847 0.02939161 -0.10194343
000190 fe f5 90 bc d9 74 ef 3d 6e 65 73 3d 40 70 41 3d
       -0.017695423 0.11692209 0.059422903 0.04722619
0001a0 27 4a 67 3d 1b 61 3e 3d 67 cd 72 3e 89 87 c5 3c
       0.0564672 0.046479326 0.23711167 0.02411248
0001b0 d9 68 5b 3e bf bd a1 bc b0 6c a5 bc d6 9a 22 bd
       0.21426715 -0.019743798 -0.020193428 -0.039698444
0001c0 68 b5 89 3d 4f 7f b4 3d 9b d5 6f bd f9 fe cf 3d
       0.067240536 0.08813345 -0.05855332 0.10156054
0001d0 76 2f 96 3d c9 dc c9 3d 2d b3 c0 3d 7c bf b0 bb
       0.07333271 0.098565646 0.09409175 -0.0053939205
0001e0 10 34 8e 3d b4 91 f1 3d 22 2a 75 3d 00 98 30 3d
       0.06943524 0.11795369 0.059854634 0.04311371
0001f0 63 0e 52 3d 3d ea 8d 3e 7b 5a 86 3d 1b 2e f4 3c
       0.05128325 0.27717772 0.065602265 0.029807141

fc3.weight f4 [64, 128]
000000 0b 55 19 be 18 1e 3c 3e 75 40 7d be b1 cb 02 3c
       -0.14973848 0.18370855 -0.2473162 0.007983134
000010 39 ad 1c 3e 2c 17 93 bc 79 fd ef 3d 15 4b c5 bd
       0.15300454 -0.017955385 0.11718268 -0.096334614
000020 f1 b3 aa 3d b3 a8 20 be 30 0a 8c 3e d5 34 18 be
       0.08335102 -0.15689354 0.27351522 -0.14863904
000030 db 05 87 be 0f 6b 68 3e be 3f 87 be e3 74 70 bd
       -0.26371655 0.2269709 -0.2641582 -0.05870522
000040 7c 28 24 be 1a fb b2 3e 99 f2 52 bd fa 83 88 bd
       -0.16031069 0.349572 -0.05150089 -0.066657975
000050 84 a5 07 be bb 33 cf bd 04 24 89 bc 70 3b 43 be
       -0.13246733 -0.10117289 -0.016740806 -0.19065642
000060 18 d5 b2 bd cd 2e 27 3e df ed 86 3c a6 24 9b bd
       -0.08732051 0.16326447 0.016470848 -0.075753495
000070 ac 43 04 be 81 4c ef 3d 40 af 57 bd 9a 15 d3 3c
       -0.1291644 0.11684514 -0.052657366 0.025767136
000080 49 87 e7 ba f8 c8 23 3e de f0 80 be 5f 00 20 3e
       -0.001766422 0.15994632 -0.25183767 0.15625142
000090 e4 61 8e 3d 8b 85 0d 3e 90 e7 42 3e f8 8f 1f be
       0.06952265 0.13820474 0.19033647 -0.15582263
0000a0 2e 71 03 3e c9 d7 c9 3c c2 dc 5f 3c 56 64 cf bc
       0.12836143 0.024639027 0.013663473 -0.025316399
0000b0 dc 9c 88 3e 58 ce 4c 3e cb 1b ec 3c 2a 1e 5a 3e
       0.26682174 0.20000589 0.028821846 0.21300569
0000c0 fc 4c c5 bc 55 0e d9 3d 75 20 38 be 7b 2d 61 3d
       -0.02408456 0.10598437 -0.17981131 0.054975014
0000d0 74 a7 aa bd c5 9d f0 bd 44 4c 5d bd 08 af 94 bd
       -0.083327204 -0.11748842 -0.05402781 -0.07259947
0000e0 56 9c 02 3e cd 16 11 bd ff e5 21 3c a7 65 8e 3d
       0.1275495 -0.035422135 0.0098814955 0.069529824
0000f0 c6 3b 54 3e 20 cd 1e bd 3f e1 85 be 15 2a c8 3e
       0.20725927 -0.03876984 -0.26148412 0.39094606
000100 25 a9 a1 3d 28 3c 82 bd 78 64 66 be 40 29 aa 3d
       0.0789359 -0.0635913 -0.22499263 0.08308649
000110 22 9b 71 bc 83 13 e8 bd b3 f5 b2 3e cf f5 62 be
       -0.014746459 -0.113318466 0.3495308 -0.22164081
000120 6e fc 48 bd 30 8b 0b be 57 dc 0d 3c 88 03 e7 3d
       -0.04906886 -0.13627315 0.00865849 0.112799704
000130 70 d2 da 3d dc 9b 9c 3d ac fd 27 3e 53 ad 44 3d
       0.10684669 0.07646915 0.16405362 0.048016857
000140 e0 32 03 be 28 2a 52 be e4 52 61 3e ce 00 ba 3d
       -0.12812376 -0.20523894 0.22004277 0.09082185
000150 90 f8 5f 3e 7e 94 63 3e db e7 8c bc 48 5b 38 3e
       0.21872163 0.22224614 -0.017200401 0.18003571
000160 3a ff 04 3d 4e cf 41 3e a5 9c 59 3e 3e 7c 90 3d
       0.032469966 0.18926737 0.21251161 0.07054947
000170 da cc 29 3d b8 67 35 3e bc b3 12 3d 6f 13 10 be
       0.041455127 0.17715347 0.03581594 -0.14069913
000180 06 df 4b 3e 8b bf b7 3d e0 a6 1d be ce 94 a7 bc
       0.19909295 0.08972081 -0.15395689 -0.020456698
000190 dd 86 c3 3c 3f 6a 2e bd 72 2c 81 bc f4 ca 8c 3e
       0.023868019 -0.042581793 -0.015768263 0.2749859
0001a0 1f c5 73 3e eb 35 b4 bd ad 4f 3b 3e 85 66 87 3d
       0.23805664 -0.087993465 0.18292113 0.06611351
0001b0 78 aa 3d 3e 83 43 36 3d aa bd d9 bd a9 6a 20 3e
       0.1852206 0.044497978 -0.10631879 0.15665688
0001c0 0c a2 3c 3e 60 cc 3b be ea 0e 43 3d b1 68 91 be
       0.18421191 -0.18339682 0.047621645 -0.28400186
0001d0 a9 59 d6 3d 17 0b 31 3e 18 37 af 3e f2 a0 47 3e
       0.1046632 0.17289387 0.3422172 0.1949499
0001e0 c8 aa fa 3c 55 66 d7 bd 96 ce a6 3e 39 c6 e7 bd
       0.030599013 -0.10517565 0.32579488 -0.11317105
0001f0 6f cc 12 3e 6a 45 71 3e 10 5d 82 3e 76 64 07 bc
       0.14335798 0.23561636 0.25461626 -0.008263698
000200 88 09 f5 bd 87 17 31 3d b2 ca a0 be f9 92 4e be
       -0.119647086 0.043235328 -0.31404644 -0.20173253
000210 ea 35 a8 3d 16 ea 77 be 09 ea a1 3d 95 77 fc be
       0.08213408 -0.2421039 0.07905967 -0.49309984
000220 37 f1 39 3e 14 31 33 be e9 f7 8d 3e d5 8b 36 be
       0.18158422 -0.1749919 0.27728203 -0.17826779
000230 5d 2a 91 be 10 d8 5a 3e 7a 97 00 bf e6 99 60 be
       -0.28352633 0.21371484 -0.50231135 -0.21933708
000240 6d f7 a3 be fc 94 d7 3e 76 e2 9b be d7 4d d5 be
       -0.32024708 0.42105854 -0.30446213 -0.4166095
000250 38 82 72 be cb ab a4 be bc 7e 8f bd b8 93 b5 be
       -0.23682487 -0.32162318 -0.070065945 -0.35464263
000260 65 2d 41 be cb 8f 1e 3e ba d5 06 be 56 8b 71 be
       -0.18864973 0.1548454 -0.13167468 -0.23588309
000270 5e d2 e6 bd d0 fa 9d 3d 68 50 aa be ac 1d b5 bd
       -0.11270593 0.07713854 -0.3326447 -0.0884355
000280 d3 2a 68 be ce 64 29 3e 00 b7 57 be b3 3f b7 3d
       -0.22672586 0.1654236 -0.21065903 0.089476965
000290 16 dd 23 3e f4 16 f3 3d 1f 67 bd 3d 9a 0a 87 be
       0.16002306 0.11869612 0.092481844 -0.26375276
0002a0 60 f9 19 3e 95 21 56 be 25 16 0a 3e d8 12 b0 bc
       0.15036535 -0.20911248 0.1348501 -0.02149336
0002b0 e2 36 a6 3e fb 11 ec 3d ac 43 05 3d a0 e0 66 3d
       0.32463747 0.11526867 0.03253524 0.056366563
0002c0 45 05 bf bd e8 35 15 bd b6 c0 81 be 33 32 9e 3d
       -0.09327177 -0.036428362 -0.2534234 0.077244185
0002d0 ca bc 91 3c 92 5c da be 43 05 9c bd e3 23 d6 bd
       0.017790217 -0.4264875 -0.07618191 -0.104560636
0002e0 2a 2d 55 3d 88 85 e8 bd 54 48 9b bc 8d e3 e2 3d
       0.052045025 -0.11353594 -0.018955387 0.11078558
0002f0 ca f0 b4 3d bc bb 06 be 7c 2a 87 be 32 54 85 3e
       0.08834989 -0.13157552 -0.263996 0.26040798
000300 15 b5 0d 3e 70 e7 1e be 76 9b 51 be 15 89 7a be
       0.13838609 -0.15517974 -0.2046946 -0.24466355
000310 5c 19 8f be 86 3d 05 bf 9f 61 e5 3e 42 c1 db be
       -0.27949035 -0.52047 0.4480104 -0.42920882
000320 bf 9f 0b 3d c1 af 1d be f0 67 9b be 45 a5 5d bc
       0.034087893 -0.15399076 -0.30352736 -0.013528173
000330 e3 a9 46 3e 3d bd 92 3d 21 9a a5 3d 9d fc ce 3b
       0.19400744 0.071650006 0.080860384 0.006316735
000340 c9 04 cb bd 81 ed 90 be f5 12 42 3e fc cd 6a 3d
       -0.09913022 -0.283062 0.18952544 0.05732535
000350 ff 8b 49 3e 79 b3 6c 3e 9e 18 ed 3d 0d da 63 3e
       0.1968231 0.23115338 0.11576961 0.22251149
000360 9e 43 ac bc d8 f8 ca 3d ef f8 a6 3d 5c e3 15 3d
       -0.021028336 0.099107444 0.08152949 0.03659378
000370 02 ee 6b 3c aa 15 b4 3d e9 cc 40 3d e4 a9 92 be
       0.014400007 0.087931946 0.047070418 -0.2864524
000380 8e 96 03 3e 01 f6 ca 3c 07 59 83 be 7c 63 69 bc
       0.12850401 0.024775507 -0.2565386 -0.01424491
000390 5b 88 0b be 2b 9d 37 be 87 da 59 be 5f 2d 47 3e
       -0.13626234 -0.17931049 -0.21274768 0.19450901
0003a0 5e 2a 8a 3e 4f 74 77 be 4d 75 53 bb 6b 59 1d 3e
       0.2698545 -0.24165462 -0.0032265962 0.15366141
0003b0 59 dd f0 3d 41 6e 0f 3e 92 23 c8 be 63 06 6b 3e
       0.11760969 0.14006902 -0.39089638 0.22951655
0003c0 2a 09 ab 3d 9b 7d 64 be 73 29 a2 bd 9f d3 94 be
       0.08351357 -0.2231354 -0.07918062 -0.29067704
0003d0 17 9a c5 3d d9 81 19 3e ca 23 8e 3e ca 69 92 3d
       0.09648531 0.14990939 0.2776168 0.07149084
0003e0 78 d0 94 bd 13 d5 33 be 92 86 8f 3e a2 cc 12 bf
       -0.07266325 -0.1756175 0.28032357 -0.57343495
0003f0 16 49 06 3d ea cc aa 3d ea 01 06 3e 7c 07 ad 3d
       0.032784544 0.083398655 0.13086668 0.08448693

fc3.bias f4 [64]
000000 3e 2b c4 3e 0e d4 e9 3e 3b 25 dc 3e 50 df c3 3e
       0.3831424 0.45669597 0.42997155 0.3825631
000010 dc 4b b1 3d 1c e7 98 3e f2 59 60 3d 50 56 c5 3e
       0.08657047 0.29863822 0.05477328 0.38542414
000020 62 b0 34 3d 56 a0 90 3d ae 7a b1 bd da bb a4 3e
       0.044113524 0.07061832 -0.086659774 0.3217457
000030 a5 f8 94 3c 4e 6f cb 3e b8 e4 88 3e 95 44 c8 3e
       0.01818497 0.39733356 0.26737 0.39114824
000040 1a 40 a5 3e 4b aa 6b 3d a2 b9 cc bc 94 20 f8 3d
       0.32275468 0.05753545 -0.02499086 0.12115589
000050 09 d0 26 3d b5 9a 52 3d 8f be a6 3d f5 ac cf 3e
       0.04072574 0.05141707 0.08141815 0.40561643
000060 10 00 ae 3e ed 6c ae 3e ab 80 a9 3d 2e 48 aa bd
       0.33984423 0.3406748 0.082764946 -0.083145484
000070 2a 8c b4 bd 29 3b ad 3e c7 84 e4 3e 96 8f 14 bc
       -0.08815797 0.33834198 0.4463255 -0.009067437
000080 20 99 16 3d 98 a8 00 3e 12 1c e9 3d 5f 5a 36 bd
       0.036767125 0.12564313 0.11382307 -0.04451978
000090 e2 a2 8e 3e 3e af 95 3d 76 d8 c0 3e 7c 40 d7 be
       0.27858645 0.073088154 0.37665147 -0.42041385
0000a0 d0 42 e7 3e 6d db 9a 3e 17 ae e7 3e b9 1f f8 bd
       0.4516816 0.30245534 0.45250008 -0.121154256
0000b0 f0 cd 8b bc 82 b1 a1 3e 20 e0 b7 3e 93 40 1e bc
       -0.017065972 0.3158074 0.3591318 -0.00965895
0000c0 43 aa 47 bc cf 24 c4 3e 86 8c 81 3e 42 7f ae 3d
       -0.01218659 0.38309333 0.25302523 0.08520366
0000d0 c1 6e 72 bc 28 4a 68 bd be 22 c7 bd 0d 5d db bb
       -0.014796914 -0.056711346 -0.097234234 -0.006694442
0000e0 cd 30 d6 bc d0 f0 cf 3e 29 a3 a5 3d 97 4e e1 3c
       -0.026146317 0.40613413 0.08087761 0.027503295
0000f0 ed 10 ce 3e f6 12 82 bd b0 f4 99 bd 62 17 9b 3e
       0.40247288 -0.06351273 -0.075173736 0.30291277

fc4.weight f4 [3, 64]
000000 ae 0e 85 3e 3e e9 5a 3e 77 95 0e 3e d9 4f df 3e
       0.25987762 0.21378037 0.13924204 0.43615606
000010 f4 85 c1 3d f9 33 16 3f e7 b5 50 be e4 37 84 3e
       0.09449378 0.58673054 -0.2038189 0.2582389
000020 b1 36 74 bd c5 5b 57 3e 07 f6 a3 bd ca b3 0e 3e
       -0.05962247 0.21031101 -0.0800591 0.13935772
000030 ff 4e 39 be 81 6a 59 3f 3b 3b d4 3d 1a 70 30 3f
       -0.18096541 0.8492814 0.1036286 0.68921053
000040 ba 6b 3b 3f cb ce 85 be 93 b7 08 3c 55 e6 8e 3e
       0.7321125 -0.26134333 0.008344549 0.27910104
000050 f2 f1 04 3e 27 98 86 3a 3d 71 7e be c6 88 04 3e
       0.1298292 0.0010268734 -0.24847884 0.129428
000060 b1 63 08 3f 71 10 c3 3e bd 59 3e bd 58 61 a7 3e
       0.53277117 0.3809848 -0.0464723 0.32691455
000070 d0 51 ad 3d bc f9 a0 3d 64 e1 74 3e b4 2f 05 be
       0.0846287 0.07860133 0.23914105 -0.13006479
000080 d9 8f f0 bd c2 35 8b 3c 3c 71 1f be 74 10 d2 3e
       -0.11746187 0.016993407 -0.15570539 0.41028178
000090 52 e7 e0 3d ca 78 a9 be b2 4b 59 3e 1b de f0 be
       0.10981621 -0.33099967 0.21220282 -0.47044453
0000a0 67 4e 94 3e 18 5d 53 3e 17 cb 77 3e e8 40 8a 3d
       0.28966066 0.20640981 0.24198566 0.06750661
0000b0 be 34 05 be 3e 8a 47 3f 70 5d 8e 3d 79 6a 54 3c
       -0.13008401 0.77945316 0.069514155 0.012964838
0000c0 cb ed fe bd 48 a7 06 3f 7d 21 f1 3e c1 37 09 be
       -0.12447699 0.52599 0.47095862 -0.13400175
0000d0 c7 12 00 bd a0 f6 52 3e 47 3c a9 be 16 95 b3 3e
       -0.031267907 0.20601892 -0.330538 0.3507468
0000e0 01 da 19 bd 42 ee a4 3e cf d4 1f be a2 3a 34 be
       -0.03756142 0.32213026 -0.15608524 -0.17600492
0000f0 db 0a 68 3e 89 8d 32 bf 05 7f d1 bd 73 2d 1c 3f
       0.22660391 -0.69747216 -0.10229305 0.6100685
000100 1a 1b 74 3e 30 2b 8b 3e 5f 27 af 3d 79 d2 df 3e
       0.23838463 0.27181387 0.08552431 0.43715265
000110 95 6f af 3d d1 b3 21 3f bd ac 4d be 1d ca 86 3e
       0.085662045 0.63165003 -0.20085426 0.26326075
000120 32 fc a9 bd 5d 9f 41 3e 09 da 46 bd 60 88 26 3e
       -0.083000556 0.18908449 -0.04854778 0.1626296
000130 ff 52 0d be 16 bf 4d 3f e6 8b d0 3d 66 ce 2c 3f
       -0.13801192 0.803697 0.101829335 0.6750244
000140 cd 2d 51 3f d2 fc 92 be 51 21 76 bd 71 62 81 3e
       0.8171051 -0.28708512 -0.060090367 0.25270417
000150 f1 ac 71 3e 77 a3 69 3c 90 59 8b be 04 39 9e 3d
       0.23601128 0.014260164 -0.27216768 0.077257186
000160 1d 4e 00 3f b8 06 bd 3e 3e e0 a3 3c d3 4a b1 3e
       0.5011919 0.36919188 0.020004388 0.346274
000170 66 8c c0 3c a4 9d 5d 3d 9f 71 99 3e 87 9d d6 bd
       0.023504447 0.054105416 0.299695 -0.10479265
000180 df 2f fe bd 11 38 83 3d 82 ec 2b be ab 66 bb 3e
       -0.124114744 0.06407178 -0.1678944 0.36601767
000190 a6 b2 05 3e 12 6b 9d be 20 d5 09 3e cd 1b e7 be
       0.1305643 -0.3074575 0.13460207 -0.45138398
0001a0 17 14 43 3e d0 02 5b 3e 53 88 91 3e 3c 75 81 3c
       0.19050632 0.21387792 0.2842432 0.015802972
0001b0 4f 0c ed bd ab be 39 3f 75 52 c9 3d a4 4a 5f bd
       -0.11574613 0.7255656 0.098301806 -0.054514542
0001c0 96 5f 23 bd b3 1f f3 3e 68 75 d4 3e 70 3b 8e bd
       -0.03988608 0.47485122 0.41495824 -0.069449306
0001d0 c7 ed b0 bb 02 41 67 3e d1 bd 99 be 9b ef 9f 3e
       -0.005399439 0.22583392 -0.3002763 0.31237492
0001e0 54 8c 27 3d 40 f8 89 3e 8e 48 05 be f9 b6 88 be
       0.04090531 0.26947212 -0.13015959 -0.26702097
0001f0 3c 56 0b 3e 04 0c 2d bf dc 15 88 3d 43 45 3d 3f
       0.13607115 -0.6759646 0.06644794 0.7393381
000200 0b 8b a9 3e f8 a6 b4 3e 1b 43 b9 3e d1 5a b2 3e
       0.33113894 0.35283637 0.3618401 0.34834912
000210 63 8d a7 be c6 27 40 3f 2f ea ae be ba 2c bd 3e
       -0.32725057 0.7506069 -0.34163043 0.36948186
000220 22 12 b1 be b7 3f ea bd e0 89 8a 3d 07 13 98 3e
       -0.34584147 -0.11437934 0.06764579 0.29702017
000230 85 7b ba be 0c 2c 1a 3f db 1d a9 3e 3b 22 f5 3e
       -0.36422363 0.6022346 0.3303059 0.47877678
000240 53 95 01 3f 8c 39 b9 be ff 45 98 be 83 18 23 be
       0.50618476 -0.36176717 -0.29740903 -0.15927319
000250 c2 b1 39 be 53 6a bb be 63 f2 c7 be f0 0c ba 3e
       -0.18134215 -0.36604556 -0.39052114 0.36337996
000260 7c 5e 2c 3f 39 84 f0 3e 32 17 a7 be ee 49 d2 3e
       0.6733167 0.46975878 -0.32634884 0.4107203
000270 df d7 95 3c 70 dd 9f 3e a9 c7 c5 3e 18 9e b2 be
       0.018291412 0.3122363 0.3862889 -0.3488624
000280 3c 6c ae be 2b 1b c8 be bd af b7 be f8 85 0e 3f
       -0.3406695 -0.39083228 -0.35876265 0.5567317
000290 c1 1a 08 3f d0 7d b3 be ad 36 c6 3e 25 13 28 bf
       0.53165823 -0.35056925 0.3871359 -0.6565421
0002a0 f8 b8 cf 3e 73 3c c3 3e 64 c8 b3 3e 09 44 57 3b
       0.40570807 0.38132057 0.35113823 0.0032846949
0002b0 23 cd a5 be 77 23 cf 3e 77 a8 d0 3e d7 ec 79 be
       -0.3238307 0.40456745 0.40753528 -0.24406753
0002c0 6b 38 87 be c6 f2 d2 3e d0 0f f0 3e e9 a2 ed be
       -0.2641023 0.41200846 0.46887064 -0.46413353
0002d0 7c ba b4 be 6f 59 0f 3f 8a 7e a2 bd b2 e6 68 be
       -0.35298526 0.5599584 -0.07934292 -0.22744253
0002e0 65 4f 86 bc c1 17 bd 3e 13 82 cb be 2f cd b0 be
       -0.01639528 0.36932185 -0.39747676 -0.34531543
0002f0 e5 b8 d5 3e 16 f0 4b be 5b 9d c2 bc a8 d3 e2 3e
       0.41742626 -0.19915804 -0.023756674 0.44302106

fc4.bias f4 [3]
000000 56 b2 82 3e 7c c4 7c 3e 76 4a 7c 3e
       0.25526685 0.24684328 0.2463778
