trained_models/checkpoint.pth (torch, 107727 bytes, 8 tensors)

fc1.weight f4 [128, 10]
000000 0a 4c 90 be b4 b6 fa 3d 72 c3 7f 3d 3c 1c 85 3e
       -0.28183013 0.12241879 0.06244225 0.25998104
000010 1d 1c 64 3e 5d 57 67 bf d2 86 7b 3e 1b ef e6 3e
       0.2227635 -0.9036768 0.24563149 0.45104298
000020 47 dc 01 3e 1c 4b 0f bf f5 3e fe be b4 a0 3a be
       0.12681685 -0.5597398 -0.49657407 -0.18225366
000030 fb 81 67 3e 91 ea 92 3e dd 73 b2 3e bd b3 97 be
       0.22608177 0.28694585 0.34854022 -0.29629317
000040 1a 27 1d bf 94 23 44 bd 99 ab 02 be 7b 05 0c 3f
       -0.6138779 -0.047885492 -0.12760772 0.5469586
000050 3c c1 0b 3f 9d dd 4a 3d ee 81 11 bf 70 cf 1c 3f
       0.5459173 0.049527753 -0.5683888 0.61254025
000060 0a a2 1a 3e 4c 6f 6f be dc a0 01 3f 40 a4 e3 bc
       0.15100875 -0.233823 0.50636077 -0.027788281
000070 d9 08 34 bd 18 17 b7 bb c3 53 19 bf ff 9e e8 be
       -0.04395375 -0.00558747 -0.59893435 -0.45433804
000080 ae 2a 10 bf 38 76 5b 3c f4 51 60 be fe 85 1b bf
       -0.56315124 0.013394885 -0.21906263 -0.6075133
000090 ff 10 d5 be 03 14 e8 be 7c 9b bc be a7 ee 0b bf
       -0.4161453 -0.45327768 -0.36837375 -0.5466103
0000a0 fa 89 29 3d 94 3b d7 3e a0 42 8c 3e 4d 3a 3e be
       0.04139135 0.42037642 0.2739458 -0.18576927
0000b0 48 e2 16 3f 47 89 94 3e 15 69 b1 be eb 35 56 3e
       0.5893903 0.29010984 -0.34650484 0.20919006
0000c0 b6 d3 f8 3d fb 24 5c 3c 31 fc 90 3e 1d 68 57 be
       0.12149756 0.013436551 0.28317407 -0.2103581
0000d0 11 24 b6 3e 1c d1 de 3e b2 8b 88 3e 00 23 31 bf
       0.3557439 0.43518913 0.2666908 -0.6919403
0000e0 ad 06 09 3d 4d f4 cd be 2c 86 3f bc 35 29 76 3e
       0.033453632 -0.4022545 -0.011689704 0.24039157
0000f0 20 22 c9 3e a5 a6 e4 3d 4e ab 89 be 7c e2 44 3f
       0.39283848 0.111645974 -0.26888508 0.7690809
000100 54 c7 8f 3e 67 09 c6 be ae 93 4d 3c f1 3a 9f 3e
       0.28081763 -0.38679048 0.012547417 0.31099656
000110 39 bc 82 3d a5 57 aa bd ab 6d 87 3e f8 5c 54 bf
       0.06383557 -0.08317498 0.26450858 -0.8295436
000120 f0 82 15 3e f3 97 61 be 95 1a 25 3f db 29 88 3b
       0.1460073 -0.2203062 0.64493686 0.00415538
000130 84 8d 98 3e 5e 41 c8 be dc af c0 3e d2 d7 5b bd
       0.29795468 -0.3911237 0.3763417 -0.05367262
000140 f6 fc 69 be a4 47 6f bc cd 9f 24 bf f9 80 1f 3e
       -0.22850403 -0.014604483 -0.64306337 0.15576543
000150 28 65 5a bd 93 73 e2 be b0 24 a4 be 53 51 ee be
       -0.053319126 -0.442288 -0.3205924 -0.4654642
000160 d6 50 01 bf d5 1c 0d bf 28 e6 05 be 5d 6d f1 bc
       -0.5051397 -0.5512212 -0.13076079 -0.029471094
000170 10 55 f9 3e a2 c5 a6 3e 65 c6 81 be bb 30 16 be
       0.4869771 0.32572657 -0.25346676 -0.14667027
000180 04 f7 fb be 65 e8 19 bf 80 f3 0b 3d f6 b8 44 be
       -0.49211895 -0.6012023 0.034167767 -0.19211182
000190 2d f3 8b bd 9a ee c3 3d 8e 96 7b be 79 88 8c 3e
       -0.068334915 0.09566994 -0.24569151 0.2744787
0001a0 d0 e7 cf be ac 9a e8 3e ee db 13 bd b5 13 58 3e
       -0.40606546 0.45430505 -0.036098413 0.21101268
0001b0 61 32 eb 3e 21 7e 1f 3f 5d 24 1b 3f 8f 1f 24 be
       0.45936874 0.6230183 0.6060236 -0.16027664
0001c0 1a f7 ab be 0e 2d 58 3e 14 11 d8 bd 1d 44 f9 3d
       -0.3358696 0.21110937 -0.105501324 0.12171195
0001d0 0b 77 60 3e 19 48 c6 3d d7 dc 30 3f 15 a6 5f 3d
       0.21920411 0.0968172 0.69086975 0.054601748
0001e0 77 f7 d9 3c 0e 1e 4c be d3 dd c4 be 3b 45 51 3e
       0.026607258 -0.1993334 -0.38450488 0.20436566
0001f0 a5 28 bc bd b5 5c a7 be d8 68 ff 3c c3 79 a2 be
       -0.0918744 -0.32687917 0.031177923 -0.31733522
000200 c8 68 06 bf 78 29 53 be 3e 6e 77 bd a4 11 75 be
       -0.52503633 -0.20621288 -0.06040787 -0.2393251
000210 9a c2 96 be 04 e7 ea 3e 4e c5 1b bf 32 4f b6 3c
       -0.29445344 0.45879376 -0.6084794 0.02225456
000220 c6 ca e2 be 87 6a 14 bf 17 d6 df be 23 ef b5 3e
       -0.4429533 -0.5797505 -0.43718025 0.3553401
000230 86 33 db 3e f3 fa 37 3e 65 a7 21 3f 1a 46 b9 bc
       0.42812747 0.17966823 0.6314605 -0.022616435
000240 50 00 38 be 86 d4 85 be 66 16 5f 3d e0 5a 31 bf
       -0.17968869 -0.26138705 0.05446472 -0.6927929
000250 94 12 c1 bd 48 c0 ba bd 0d c6 04 3f 8a 72 41 be
       -0.094273716 -0.09118706 0.518647 -0.1889135
000260 c8 f6 0e 3f da 55 c1 be 1f da 01 3e 2c 57 8a 3d
       0.5584531 -0.37760812 0.12680863 0.06754908
000270 3c ef bd 3d 36 c4 3b 3d bd d4 b4 be 42 b8 d3 be
       0.09274146 0.04584142 -0.35318556 -0.41351515
000280 1b 7b fc be 07 89 d8 be 7c f9 77 be 18 7a b3 be
       -0.49312672 -0.42292044 -0.24216264 -0.35054088
000290 10 56 db bd 98 c2 8e be 5e 78 97 3e c3 e8 cb be
       -0.107097745 -0.27882838 0.2958402 -0.3982602
0002a0 62 44 66 bd 58 af ce be 77 b0 25 be 09 90 bb 3e
       -0.05621756 -0.40368152 -0.16180597 0.36633328
0002b0 3a 44 18 3e ba 5a 1b be da 9c d4 be ce eb 8f 3e
       0.14869776 -0.15171328 -0.41525918 0.28109592
0002c0 0a 45 05 bf ce cf c8 3e 11 3e 21 bd e5 e0 15 bf
       -0.5205847 0.39221042 -0.03936583 -0.58546287
0002d0 e0 94 8b 3d ae ce 3c bf e8 89 a3 3e 1f 20 cb bc
       0.06815505 -0.7375287 0.31941152 -0.02479559
0002e0 2b 03 89 bd 15 03 0c be 0f ec bb 3e cb 2f b0 3e
       -0.06690057 -0.1367305 0.36703536 0.34411463
0002f0 a4 09 9b 3e cb de 34 bf 97 05 ac be 4c 4f 99 be
       0.30280793 -0.70652455 -0.33598015 -0.2994331
000300 aa c4 21 bf 48 4e 06 3f f9 a5 b3 be 05 c8 8e 3e
       -0.6319071 0.524632 -0.35087565 0.27886978
000310 b4 54 93 be e2 6f fc 3e d2 7b 85 3e b1 07 7c be
       -0.2877556 0.4930411 0.2607103 -0.24612309
000320 fd 48 af 3e fc 22 7c 3e 65 bf 6b be 47 2f 49 3f
       0.34235373 0.2462272 -0.2302223 0.78587765
000330 3b 81 20 3c 77 54 17 bc 95 27 e6 3e e3 a2 33 3f
       0.009796436 -0.009236447 0.44952074 0.7017042
000340 72 3a 46 be 6e 1c 1c be f3 d9 37 3c ba 4e 3a bf
       -0.19358233 -0.1524522 0.011221397 -0.7277638
000350 5e 1b be ba 49 04 85 be d4 91 14 3f 04 16 b5 be
       -0.0014504006 -0.25979832 0.58035016 -0.3536836
000360 56 cd d1 bc 20 cb 2a bf d7 db a2 3e 16 75 00 bf
       -0.025610607 -0.66716194 0.3180835 -0.5017866
000370 f0 94 a2 3e 61 32 98 bd f1 61 f3 3d 45 e8 3d 3f
       0.31754255 -0.07431484 0.11883915 0.7418254
000380 d2 e0 d2 3e 31 12 74 be 8d ee b5 3b 15 b3 ea 3d
       0.4118715 -0.23835064 0.005552119 0.114599384
000390 de 0e 1f 3e e0 ff ae 3d 8f fe 04 bf 99 6d 75 3e
       0.15533015 0.08544898 -0.51950926 0.2396759
0003a0 30 85 7e 3e 8d 8e 1b 3f ba 56 77 3e 27 cc f2 be
       0.24855494 0.6076439 0.24154177 -0.4742138
0003b0 d2 7d d9 be d2 71 99 be cd b1 c7 3c a8 a4 ba bd
       -0.42478806 -0.2996965 0.024376774 -0.09113437
0003c0 42 ab d3 3e 05 7e ba 3b 86 9c 9e 3e bc 65 e3 be
       0.41341597 0.005691292 0.30978793 -0.44413555
0003d0 7d c5 8d bd b1 0a b1 3d 00 bb 24 3d c8 a1 c0 be
       -0.069224335 0.08644617 0.0402174 -0.3762343
0003e0 74 fb 3c bf 33 18 03 be 45 4e a9 bd e3 33 67 3d
       -0.73821187 -0.128022 -0.08266882 0.056445967
0003f0 f4 aa e2 3e 49 41 10 3f fa 59 14 bf ec 3e 1e 3f
       0.44271052 0.5634962 -0.57949793 0.6181476

fc1.bias f4 [128]
000000 b4 df ea be 11 f9 3d be 90 43 9a be 50 f2 21 be
       -0.45873797 -0.18552043 -0.3012967 -0.15815091
000010 96 a5 4e be 3c 3b 91 be 21 8b 3e be 45 01 d5 be
       -0.20180354 -0.28365505 -0.18607761 -0.4160253
000020 71 21 1c bd 45 7d 7f bd ed 42 cb be 15 9b 3d be
       -0.03811783 -0.062375326 -0.39699498 -0.1851619
000030 d3 94 99 3d ff 87 0a be a4 54 0d be 80 5d 23 be
       0.07499089 -0.13528441 -0.13801819 -0.15953636
000040 c5 7c 36 bd 8d d4 d6 be d0 d3 40 be fa dc c7 be
       -0.044552583 -0.41959038 -0.188308 -0.3903578
000050 b2 4d 93 be 4d c4 84 be 2c cd cf bd dd 46 72 be
       -0.28770214 -0.25931016 -0.10146555 -0.23659845
000060 01 21 00 be 19 1d 3f be 5f 67 5e be 8b 68 fd be
       -0.1251259 -0.18663444 -0.2171912 -0.49493822
000070 05 ec c7 be e9 cb 28 be 01 f8 dc be bd b9 bc bd
       -0.39047256 -0.16484036 -0.43157962 -0.09215114
000080 27 69 6c be 9f 6e 7a be ea 99 85 be ab 2a 8f be
       -0.23086987 -0.24456261 -0.2609399 -0.2796224
000090 0a 62 96 be 51 55 13 be 94 a7 cf be c1 34 31 be
       -0.29371673 -0.14388014 -0.4055754 -0.1730528
0000a0 15 bf ec be 54 20 eb be 47 d2 a4 be 12 bd 1a be
       -0.46239534 -0.45923102 -0.3219168 -0.15111187
0000b0 87 b0 00 bf 45 bd eb be 9d 5d 0d be 92 67 20 bd
       -0.5026936 -0.4604284 -0.13805242 -0.039161272
0000c0 d6 fd ae be 97 71 dd be 11 49 86 be 01 86 b9 bd
       -0.34178036 -0.43250725 -0.2622762 -0.09058762
0000d0 5c 12 e1 be e7 22 03 bf a4 c4 8a be 7a ca d4 be
       -0.4395932 -0.5122513 -0.2710315 -0.41560727
0000e0 d3 97 af be 19 07 b2 bd 2d a3 5d be 1e a8 de be
       -0.3429552 -0.0869276 -0.21644278 -0.43487638
0000f0 bb c9 35 3c 9a aa f1 bd 05 45 84 be 5d e2 00 bf
       0.01109546 -0.11800118 -0.25833908 -0.503454
000100 ef 17 da bd 2d d3 de be 3a 18 12 be d2 e4 7c be
       -0.10649096 -0.4352049 -0.14267054 -0.24696663
000110 35 a3 05 bf ed 31 01 bd 9e d5 b3 bd 2e 7a a2 be
       -0.5220216 -0.031541754 -0.087809786 -0.3173384
000120 84 74 e1 be 0a 9b 6f be 23 22 cd be 57 b2 a0 bd
       -0.44034207 -0.23398986 -0.40065107 -0.078465156
000130 05 5e ba be 7c 7c 3e be 99 92 3c bd 8e c5 94 bd
       -0.36399856 -0.18602175 -0.046038244 -0.07264243
000140 58 1a 82 be ed 72 b3 be 81 34 96 be de e5 3c be
       -0.25410724 -0.3504862 -0.29336932 -0.18447062
000150 f8 c2 77 bc 91 7b d3 bd ca 27 09 be 4f 3b 01 bc
       -0.015122168 -0.10326303 -0.13394085 -0.007887675
000160 b5 e3 0a be bb 28 fb bd 24 fb 36 3c 14 e9 99 be
       -0.13563426 -0.12263628 0.011168275 -0.30060637
000170 97 a5 59 bd a8 19 9a be 83 91 82 be 5c 69 68 be
       -0.053136434 -0.300977 -0.25501642 -0.22696441
000180 30 c6 6b be c6 01 ab 3d 44 76 99 be 7d 5f 9d be
       -0.23024821 0.08349948 -0.29973042 -0.30736914
000190 cc 4b 18 bd ad 2f fa bd d5 de ed bd d9 26 d7 bd
       -0.03718166 -0.12216125 -0.116147675 -0.105054565
0001a0 33 f8 55 be 02 94 6f be a1 ee 15 be a6 ad d3 be
       -0.20895462 -0.23396304 -0.14641811 -0.4134342
0001b0 93 b7 94 be 4c 41 2a be 88 40 4c bd 5a d6 12 3d
       -0.29046306 -0.16626471 -0.04986623 0.035848953
0001c0 15 ba 75 be e1 08 b2 be 7e b1 b0 be 8d 76 af be
       -0.23996766 -0.347724 -0.34510416 -0.34270135
0001d0 3d cd e3 be 2d 36 28 be 8e 7f a7 be 2b 8c 8d be
       -0.44492522 -0.16426916 -0.32714504 -0.27646002
0001e0 a8 99 37 be 90 50 a5 be c5 8c 0c be 06 87 98 be
       -0.17929709 -0.32288027 -0.13725574 -0.29790515
0001f0 60 39 ac be 57 70 5e 3c a0 b7 b7 be f8 ff 79 be
       -0.33637524 0.013576589 -0.35882282 -0.2441405

fc2.weight f4 [128, 128]
000000 36 10 4b bc 2d bc 0a bd 2a 75 49 bf 8a 48 d5 3d
       -0.012394002 -0.033870865 -0.78694403 0.10414226
000010 7e 0c a2 be 4f fd 7c 3d b9 10 1b be dd 70 29 3e
       -0.31650156 0.06176501 -0.15143098 0.1654696
000020 45 d8 82 3d d0 ea 50 3d b4 c3 c3 be 54 fa 5b bf
       0.063889064 0.051005185 -0.38235247 -0.85928845
000030 1a b7 56 3d 28 c5 44 bd 6b 5d c6 3d 0d f9 08 3e
       0.052420713 -0.048039585 0.09685787 0.13376255
000040 35 07 ca bd a1 8d cb 3e de 1e d9 bc 26 62 b7 be
       -0.09864656 0.39756492 -0.026503976 -0.3581707
000050 f8 fb 99 bf 24 87 16 bd df 15 c2 3d 60 d7 ad bd
       -1.203002 -0.036749974 0.09476828 -0.08488345
000060 98 99 3e 3e ff 47 5d be aa 85 fb 3d 2a c1 10 bd
       0.18613279 -0.21609496 0.12281354 -0.035340466
000070 70 92 00 3f 1a 94 6a 3e cf 50 e8 3e e1 d4 fd 3b
       0.50223446 0.22908059 0.45374152 0.0077463244
000080 a6 85 7c be af c0 8e 3e 26 c6 50 3e eb 22 e4 3d
       -0.24660358 0.2788138 0.20388088 0.111394726
000090 0e ab 8a be 3e 7e ba bc e7 41 60 be 4d 6e 87 be
       -0.2708363 -0.022765275 -0.2190014 -0.2645134
0000a0 e3 14 71 be be e6 6a bf bd e3 f9 be c5 d5 65 be
       -0.23543124 -0.91758335 -0.48806563 -0.22444828
0000b0 fb e0 e0 be 51 58 f5 3e 8f d2 04 3e 7a 68 1d 3e
       -0.43921646 0.47918943 0.12970947 0.15371886
0000c0 69 06 0b be f7 3f 25 bf 54 f1 74 be 31 91 7e bd
       -0.13576664 -0.6455073 -0.23920184 -0.062150184
0000d0 d8 ee e3 3d bd 2f 13 3e 20 9f 5d be 5b f1 ef 3d
       0.1112954 0.1437368 -0.21642733 0.11715957
0000e0 47 c8 37 be a6 2e dc bd 5c 29 38 3e e9 eb d5 bc
       -0.17947493 -0.10751085 0.17984527 -0.026113467
0000f0 04 70 46 3d 48 82 18 3e 9a 4c 6a bf f3 24 26 be
       0.04844667 0.14893448 -0.91523135 -0.16225033
000100 0a f4 0e 3e b0 28 04 bf 46 94 17 3e 21 9c 4e 3c
       0.13960281 -0.51624584 0.14802656 0.012610466
000110 d4 16 97 bf 4b 66 08 3e 1c 97 5c be 0a 02 92 bd
       -1.1803842 0.13320272 -0.21542019 -0.07129295
000120 a8 08 4a bf fd 94 b8 3d 76 89 e2 3e 8c 98 ac bd
       -0.7891946 0.09012792 0.442455 -0.084275335
000130 26 66 93 be 80 b2 66 bf 6f a7 92 3c 94 fc b2 bd
       -0.2878887 -0.9011612 0.017902104 -0.08739582
000140 ea 35 a8 bd ce 21 4f 3c 72 2d f6 bd 80 d5 18 bf
       -0.08213408 0.012642337 -0.12020387 -0.59700775
000150 47 01 0e 3e 64 40 09 bd 1e ec 96 be df 26 b1 bd
       0.13867675 -0.033508673 -0.29477018 -0.08649992
000160 f7 6d 83 3d 3c 6a 95 3e 14 6d 29 3e 79 26 0a be
       0.064174585 0.29182613 0.16545516 -0.13491239
000170 ba 38 60 3d b9 88 03 be af db 7b 3e bc 8c cc 3d
       0.0547416 -0.12845124 0.24595521 0.099877805
000180 e7 b9 4d bf 1f 06 96 3d 24 2c 43 bd a7 f1 da 3c
       -0.8036179 0.07325386 -0.047649518 0.026726557
000190 d8 b0 6e 3d 22 1d ef 3c cd f7 ed 3d 5d 24 33 3e
       0.05827412 0.029188696 0.1161953 0.1749434
0001a0 99 04 99 bf 7b 39 e8 be 96 40 d5 3b f4 b4 d0 be
       -1.1954528 -0.45356354 0.0065079434 -0.40763056
0001b0 e2 ca 59 bd c1 ef d7 3d de 4b 30 3e 86 cc 07 bc
       -0.053172 0.10543776 0.17216441 -0.008288508
0001c0 a2 49 fc 3d c2 d2 6f be 8d f0 95 be e4 6f a6 be
       0.12318732 -0.23420241 -0.29285088 -0.3250724
0001d0 8f 66 25 3c 2b 6c b7 b9 c3 ed 17 3e cd 8e 17 3d
       0.010095253 -0.0003498507 0.14836793 0.03700142
0001e0 d7 1c a2 be df c8 4e bc 90 66 37 3c a0 68 2f be
       -0.31662628 -0.012621134 0.011193886 -0.17129755
0001f0 93 0d 54 be a1 fa 3c 3d 77 85 cb bd e5 7b 4f bd
       -0.20708303 0.046137456 -0.09937566 -0.050655264
000200 7f 12 1e bf c4 0f 1f 3d 8b fc 12 be e4 4c 85 bf
       -0.6174697 0.038833395 -0.1435415 -1.041409
000210 6e b6 32 3d fe 20 a2 3e 85 15 e4 3d 15 b8 02 bf
       0.04363101 0.31665796 0.11136917 -0.51062137
000220 d7 5b b5 bd b5 7a f0 3d e8 84 a2 be 58 7a 50 3c
       -0.08855408 0.117421545 -0.31742024 0.0127244815
000230 fa 1f 0e bc 9e d9 22 bd 49 25 de bd 81 44 16 3b
       -0.008674616 -0.039758317 -0.10846955 0.0022929015
000240 c8 73 40 bf 7a 5c 0f be f7 56 3f bd 46 bc 9b bd
       -0.7517667 -0.14000121 -0.046713796 -0.0760427
000250 8c 8b 2c bd 9f 2b 8f bd 8f 1e ab 3d 42 7a 3c 3e
       -0.04212527 -0.06990742 0.08355438 0.18406013
000260 72 d2 33 3e 2d 1f 89 bd 40 da 63 be f1 a4 01 bf
       0.17560747 -0.066953994 -0.22251225 -0.50642306
000270 71 dc c6 be 90 20 57 be ea 12 03 3e 7d 2e 6d be
       -0.38840058 -0.21008515 0.12800184 -0.23162265
000280 1b 6c 33 3d c2 6d 95 be 73 49 34 bf 4a d0 22 be
       0.04380427 -0.291853 -0.70424575 -0.15899768
000290 b3 6d e5 bd 97 7e d6 3d 93 5c 75 bf 0c 21 76 be
       -0.11202564 0.10473364 -0.9584438 -0.24036044
0002a0 99 cc 19 be b3 8a 01 bf 22 d4 5b bf e4 e0 80 bf
       -0.15019454 -0.50602263 -0.85870564 -1.0068631
0002b0 b4 22 fb be 5a 70 00 bf 95 18 d4 bc f0 27 25 3e
       -0.49049914 -0.50171435 -0.025890628 0.16128516
0002c0 d6 29 ff bc 5c c8 95 bd d7 c6 1f 3d 99 e1 43 be
       -0.031147879 -0.07313606 0.039007988 -0.19129027
0002d0 14 ec df be ab 15 7e bf c0 3a 5e bf 11 0c e6 be
       -0.437348 -0.9925181 -0.86808395 -0.4493108
0002e0 7c 66 ad be db 26 0c bc 1e 4d 0f bf 02 c8 8a bd
       -0.33867252 -0.008554186 -0.55977046 -0.0677643
0002f0 92 bb 07 3d 22 36 56 be b5 9a d8 be df 50 ef be
       0.033137865 -0.20919088 -0.42305532 -0.46741387
000300 92 2f 10 3e 44 68 3a bf 9d b0 39 bd 4b 63 fb be
       0.14080647 -0.72815347 -0.045334447 -0.49099192
000310 b6 71 1e be 6c dd 11 bd 06 94 e8 3d cb 14 3a bf
       -0.15473065 -0.035611555 0.11356358 -0.7268798
000320 9d a4 04 bf 58 dd 20 bd 71 f7 49 bf 04 a3 3d bc
       -0.5181368 -0.03927359 -0.7889319 -0.0115745105
000330 cc 5e 2c be c9 d9 42 bc 05 4e b7 be e7 9b 5f 3e
       -0.16833037 -0.011892744 -0.35801712 0.21836816
000340 99 34 05 3e 3d 1a bc 3c 50 ad 28 be db 49 4d 3d
       0.13008346 0.02296173 -0.16472363 0.050119262
000350 78 e9 d4 bc e4 2f 03 3d 4a b2 25 bf 18 9a b3 3b
       -0.025990233 0.032028094 -0.6472517 0.005481016
000360 b7 4f 74 be 09 25 88 be 31 cb 00 be 13 fb 77 3d
       -0.23858534 -0.26590756 -0.12577511 0.060542177
000370 28 ab 05 3c 9a 8e cb be 33 f8 85 bd b6 dd 52 3e
       0.008158483 -0.39757234 -0.06541481 0.20592389
000380 11 67 de be 28 e8 9e 3c c3 ff 0e bf f5 25 a0 3e
       -0.43438008 0.01939781 -0.5585901 0.3127896
000390 31 3a 33 bd c3 d8 4d bf 5d e4 4d 3e df a1 69 be
       -0.043756668 -0.8040888 0.20106645 -0.22815655
0003a0 e0 8b b9 be d4 98 95 bf 50 04 87 3d 16 42 d1 bc
       -0.3623953 -1.1687264 0.065926194 -0.025544208
0003b0 f5 d4 7f be 7d 0d 1b be 7c b0 24 be f7 42 74 bf
       -0.2498358 -0.15141864 -0.16082948 -0.9541468
0003c0 46 0a 74 be f8 5f b7 3c 61 3b 62 3e 54 0d 59 bf
       -0.23832044 0.022384629 0.22092964 -0.8478596
0003d0 00 f8 f8 3d cb 8f a2 bd f2 13 93 be a9 33 d2 3e
       0.12156677 -0.079375826 -0.28726155 0.4105504
0003e0 1b 4d b0 bf f6 1e 52 bf 04 72 52 3d 17 33 00 bf
       -1.3773531 -0.8207849 0.051378265 -0.50077957
0003f0 df 91 80 be 82 0e 1f 3e 5f 9c 20 bf 4c 73 c2 be
       -0.2511129 0.15532878 -0.62738603 -0.3797859

fc2.bias f4 [128]
000000 57 cf 18 be c1 67 f7 3c 73 18 a0 3c 57 21 85 3c
       -0.14922844 0.03020084 0.019542908 0.01625125
000010 e7 2b 90 3e a4 76 c6 3b 12 61 33 3b 16 4a b0 3d
       0.28158495 0.0060566235 0.002737109 0.08607881
000020 12 20 cc bd 55 85 8e 3c b0 20 1d 3d 50 43 6f 3d
       -0.099670544 0.017397562 0.03836125 0.058413804
000030 3e 65 13 be 41 24 d5 3e 47 16 0c bd f3 5a 35 be
       -0.1439409 0.41629222 -0.034200933 -0.17710476
000040 6e 17 e7 3b 1b d9 53 bd 6f f3 58 bd fe 59 fa 3d
       0.0070523536 -0.05172072 -0.05296653 0.12224196
000050 89 8a 09 bd 9a b0 35 3c 8c 30 e0 3e c6 dc 27 be
       -0.033579383 0.011089468 0.43787038 -0.16392812
000060 ec 07 03 3f be e6 68 bd e4 55 a6 b9 dc 39 0e 3c
       0.5118396 -0.056860678 -0.0003172598 0.008680787
000070 4f dc 17 be db 1d 6d bc 8a c0 9e 3c 15 b2 45 be
       -0.14830135 -0.01447245 0.01937892 -0.19306214
000080 47 ed 70 bd ac 9b a2 3c e0 09 d8 bc 8f 28 52 be
       -0.058820035 0.01984962 -0.026371896 -0.20523284
000090 ba cf 00 be 65 ad b2 bd 57 32 40 be 08 cb a5 bd
       -0.12579241 -0.08724479 -0.18769203 -0.08095366
0000a0 71 fb 26 3c 9d cd c9 bd f2 ee b9 bd 19 c5 41 3d
       0.010191784 -0.09853671 -0.09078778 0.047307108
0000b0 1d 8e bb 3c fe a9 8e bd fd 1f 9e 3c 02 2b 8a bc
       0.022894913 -0.06966017 0.019302363 -0.01686621
0000c0 c4 59 0e bd b5 80 31 be 8c ae 07 be b1 94 6d bd
       -0.034753576 -0.17334254 -0.13250178 -0.05800313
0000d0 1b 44 96 bc 2b c0 80 bd 13 45 79 3c 75 d1 de bd
       -0.018343022 -0.06286653 0.0152142225 -0.108797945
0000e0 56 05 05 bd e3 77 19 3d 6e e3 12 bc 0c 36 2c bd
       -0.032475792 0.03746785 -0.008965356 -0.04204373
0000f0 df 6f 29 3d b6 27 2b be 9d 5e ca bd b2 cc bb bc
       0.041366454 -0.16714367 -0.09881327 -0.022924755
000100 cc 23 3f be c0 36 3e be 9f 57 45 be 42 8e 5b bd
       -0.18665999 -0.18575573 -0.19271706 -0.053602464
000110 01 66 c0 bd c6 4c b3 3a ce 63 03 be 41 fc 3b bd
       -0.09394456 0.0013679496 -0.12831041 -0.045894865
000120 ec 01 1f be 05 61 b7 bd ee 04 e4 bd 7b 23 92 3c
       -0.15528077 -0.08954052 -0.11133753 0.017839184
000130 53 28 42 bc 3c 23 0a 3f ec 14 e8 3e 0b fd 4c bd
       -0.011850434 0.53960013 0.45328462 -0.050046008
000140 96 41 ba be e9 c2 e1 3c ad 41 bb 3d 68 90 e1 3b
       -0.36378163 0.02755876 0.09143386 0.0068836696
000150 a7 af 10 bd 96 bc 73 be bf a7 5e be a3 18 3e be
       -0.035323765 -0.23802409 -0.21743678 -0.18564086
000160 0e 11 d6 bd e7 0a c1 bd f9 00 fb bc 31 29 88 bd
       -0.10452472 -0.094259076 -0.030640112 -0.06648482
000170 5b 62 0b 3d fd ae 8e bd d1 72 d9 ba 83 7b 67 3d
       0.034029346 -0.0696697 -0.0016590004 0.056514274
000180 22 6d 8e 3d 49 86 a6 bd 36 5b ea bc 3a 6d 19 3f
       0.06954409 -0.081310816 -0.028607946 0.5993229
000190 d3 cd 43 3c e9 80 98 3c a8 9f eb be 26 c9 2a be
       0.011950928 0.018616157 -0.46020246 -0.16678295
0001a0 55 86 07 be 82 05 45 bd 90 63 69 bd 7e 94 b7 be
       -0.13234837 -0.048100956 -0.056979716 -0.35855478
0001b0 37 68 3a bd c3 a8 5a be c7 57 78 bc 3b 71 9c be
       -0.045509543 -0.2135344 -0.0151576465 -0.30555138
0001c0 ff d4 87 bc 3b 1d 8c bd 74 44 0d bd 65 8f ed bd
       -0.016581057 -0.06841513 -0.03448911 -0.11599616
0001d0 2a e1 2c 3e 78 dd 05 3f 38 b4 53 3c 18 68 69 bd
       0.16882768 0.5229106 0.0129213855 -0.056984037
0001e0 b3 ff af bc af cf 5c 3d 2a 66 19 be 59 17 de bd
       -0.021484232 0.053909 -0.14980379 -0.10844297
0001f0 4e d7 43 3c 76 63 01 be 64 63 67 bd bb ce 2e bd
       0.011953188 -0.12635598 -0.05649127 -0.042677622

fc3.weight f4 [64, 128]
000000 ad f5 2e bf 5c 67 85 3e e8 5b 92 bc e2 0b 8d bd
       -0.6834362 0.2605542 -0.01786609 -0.06887032
000010 00 50 61 3e f2 a5 84 be 5f 20 c9 be a4 24 bb bd
       0.22003174 -0.25907856 -0.3928251 -0.09137848
000020 23 78 87 bf 1d c0 1c 3f 8b a4 93 bd 9c 3c 0f bf
       -1.0583538 0.6123064 -0.072091185 -0.5595186
000030 34 27 0a bf 27 5b 43 3d cd 14 5d bf 22 19 9e bf
       -0.5396607 0.04769435 -0.86359864 -1.235142
000040 1c 12 90 bf 77 e9 bb bf d0 0e 9b bf 93 ea 3a bd
       -1.1255527 -1.4680623 -1.2113895 -0.045633864
000050 b1 5a 57 bf 0b c3 3b bf 0c 94 8f 3d d8 73 72 bf
       -0.8412276 -0.73344487 0.070106596 -0.94708014
000060 5c 93 c7 3e d1 96 fe be f6 b6 0a bf af ea 65 bf
       0.38979614 -0.4972444 -0.54185426 -0.89811224
000070 65 62 eb be fc 43 33 3f d6 da 0c bf 0e 84 8b bf
       -0.45973507 0.7002561 -0.5502142 -1.0899675
000080 d8 f6 65 bf b3 0b 10 bf e0 8f 79 bf 62 0d 65 3e
       -0.8982978 -0.5626785 -0.9748516 0.22368386
000090 bf d7 84 bf d7 f0 8f bf 79 4a 85 bf df f7 1c 3f
       -1.037834 -1.1245373 -1.0413352 0.6131572
0000a0 81 13 26 bf 2b e1 87 bf e3 50 bd bf 39 e4 2b be
       -0.6487351 -1.0615591 -1.479031 -0.16786279
0000b0 e7 59 0b 3e 1b 71 8d bf 38 7c c6 be 22 46 d5 bd
       0.13608514 -1.1050142 -0.38766646 -0.104137674
0000c0 9e a0 9d be f0 b6 52 bf 01 9e b3 bf cc 3a a2 bf
       -0.30786604 -0.8231039 -1.4032594 -1.2674193
0000d0 7a 7b ad bf 3f 1d f1 be 3f 76 65 bf d6 24 49 bf
       -1.3553307 -0.47092625 -0.89633554 -0.7857183
0000e0 58 b6 c6 be 79 a5 d9 be da 2b 84 bf 4d 8c 8e 3e
       -0.38810992 -0.42509058 -1.0325882 0.27841416
0000f0 9d 37 4b 3e 2a d6 30 be be 84 0d bf ff c1 a8 be
       0.19845434 -0.17269197 -0.55280674 -0.32960507
000100 92 bf 51 be 4a 3d 76 bf 53 8e 0e be d4 84 ac bf
       -0.20483235 -0.9618727 -0.1392148 -1.3478036
000110 c0 7f 55 bf 1b 18 0e c0 28 28 ff 3e 4b 01 16 be
       -0.83398056 -2.2202213 0.49835324 -0.1464893
000120 7d 31 a6 3e 12 75 97 bf 93 4e d7 3d 69 4e d0 bf
       0.32459632 -1.1832602 0.10513034 -1.6273929
000130 88 05 3c bf 9e b8 e8 3d 0d b9 af 3d 4e a7 8d bf
       -0.7344594 0.11363338 0.085802175 -1.1066682
000140 5f 5d c9 be 6f 0d 85 bf d0 1b b7 3e 80 aa be be
       -0.3932905 -1.0394725 0.35763407 -0.37239456
000150 cc bc b0 bd 08 4b 0d bf 1b d7 80 bf 71 68 4f bf
       -0.0862976 -0.55192614 -1.0065645 -0.8101874
000160 d5 b1 74 3d 15 43 3a bf aa bd 11 3d d2 71 a1 be
       0.059739906 -0.7275861 0.03558127 -0.3153215
000170 07 7b ef 3b 98 b5 43 bf 37 90 17 bf dd ea af 3e
       0.007308367 -0.76448965 -0.5920443 0.34358874
000180 a5 f8 ad 3e c3 4f 53 3e 45 06 38 bf 97 eb 87 3e
       0.33978763 0.20635895 -0.71884567 0.26546928
000190 4c 71 00 bf 65 01 d1 3e 4c ed 17 bf f0 75 79 bf
       -0.5017288 0.40821376 -0.5934646 -0.97445583
0001a0 a2 be 14 be 2c 6e 49 bf 95 ae 5f be 39 f8 19 bf
       -0.14525846 -0.78683734 -0.21843942 -0.6014438
0001b0 a9 e5 82 bf 74 6f b1 3d e6 18 45 be 9a da 14 bf
       -1.0226337 0.08663836 -0.19247779 -0.5814606
0001c0 01 dd 18 bf 19 78 48 bf 43 b6 14 3f 44 27 5e bf
       -0.59712225 -0.78308254 0.5809061 -0.86778665
0001d0 6a ad 57 3d 7c 45 71 bc 23 98 0e bf 45 6f a3 bf
       0.052655615 -0.014726039 -0.5570089 -1.2768332
0001e0 d2 11 9f 3e 53 dc 48 3f 0d e8 b9 bf 16 b4 c1 bf
       0.31068283 0.7846119 -1.4523941 -1.5133083
0001f0 b4 c5 14 bf 5b 2d 51 bf 36 34 e1 be 95 cc 26 bf
       -0.5811417 -0.8170983 -0.43985146 -0.6515592
000200 88 70 7a be 97 56 10 bd a4 69 1b 3e 80 b5 0a 3e
       -0.2445699 -0.03523883 0.15177017 0.135458
000210 76 c6 ac 3e 27 31 78 be 7f c0 12 be 86 89 5e be
       0.33745164 -0.242375 -0.14331244 -0.21732149
000220 49 4b 5d 3d ec 02 21 3e 08 d6 59 be e9 2d eb bc
       0.054026876 0.15723771 -0.21273053 -0.028708415
000230 db f7 83 3e 6d 2b 9c 3e 47 8e a3 bd b7 46 41 3e
       0.25775036 0.3050188 -0.079861216 0.18874632
000240 bf c0 9a bf 8e 84 29 3e 82 ec 96 3e 7c d1 31 3e
       -1.2090071 0.16554472 0.29477316 0.17365068
000250 3e 06 c5 3d d6 0b 17 3e 88 7b cd 3e 3f 01 8f 3e
       0.09620331 0.14750609 0.4013331 0.27930638
000260 e1 43 8b 3e 17 61 e3 bc 4e d2 87 3e 47 7d b2 3d
       0.27200225 -0.027756257 0.26527637 0.08715301
000270 21 79 8e be 27 9f e8 bd 4f 04 84 bd 3e 5f 6a 3e
       -0.2782679 -0.11358481 -0.06446134 0.22887895
000280 36 88 48 3e de d8 20 bf e7 83 d2 3d 5f b6 16 3e
       0.1958321 -0.62830913 0.102790646 0.14718007
000290 e2 fb 6f 3e cc d5 78 3e ac b6 23 3e 63 13 33 3e
       0.2343593 0.24300307 0.15987653 0.17487864
0002a0 eb 54 9d 3c 31 f7 6e 3e 08 d2 05 3e 09 a1 c7 bd
       0.019205531 0.23336484 0.13068402 -0.09747512
0002b0 03 ed 9c bd 03 10 ab 3b 09 c8 b2 be 91 29 6f bf
       -0.07662394 0.0052204146 -0.3491824 -0.934228
0002c0 3b 57 5f 3d ec 96 85 3e de 0c f6 3d 69 b2 70 3d
       0.05452655 0.26091707 0.12014173 0.058763895
0002d0 8a ee 87 3d 7b 00 0a 3e d5 18 c6 3d ba 15 03 be
       0.066372946 0.13476746 0.09672705 -0.12801257
0002e0 c8 62 95 3e 12 05 78 3b 1b c8 b6 3d b8 4a c0 3d
       0.29176927 0.003784482 0.08924886 0.093892515
0002f0 12 37 eb bd d9 7b e5 be c0 bd 75 3e 47 65 e8 3d
       -0.11485113 -0.4482105 0.23998165 0.11347442
000300 a3 1d 65 3e 2f 47 8a 3e 46 f5 1f 3e 2f a8 24 3d
       0.22374587 0.27007434 0.15620908 0.040199455
000310 09 c1 ca 3d 61 8f 6b bf a1 53 14 3d d1 69 a2 3e
       0.099001 -0.92015654 0.036212567 0.31721357
000320 4d cf f8 bd f2 49 12 3d 9d 86 3c 3e 5d 58 a6 bf
       -0.121489145 0.03571505 0.18410726 -1.2995716
000330 27 7f 94 bf 38 a1 04 3e 3f 73 c9 3e 7b 82 20 3e
       -1.1601304 0.12952125 0.39345738 0.15674774
000340 8a 6c 2f 3e ec 52 32 bf 49 f7 9d 3d d8 b6 c2 3e
       0.17131248 -0.6965778 0.077131815 0.38030124
000350 88 5d f5 bc fe 5f 02 3e 70 f1 80 bc 5f 07 2f 3e
       -0.029951826 0.1273193 -0.015740126 0.17092656
000360 b7 2d 81 3d ab 73 01 3d 68 f2 15 3e ff de 68 3d
       0.063075475 0.03160445 0.14643252 0.05685329
000370 2e dc 96 3e 19 89 14 bc dc 96 ab be 62 af df 3c
       0.2946486 -0.00906589 -0.33513534 0.027305309
000380 2a e8 33 3e d9 7b 3e 3e db 09 ed 3d 48 17 22 3e
       0.17569032 0.18601932 0.115741454 0.15829194
000390 3b 25 57 3c 11 36 56 3e a0 25 10 3e 9c 79 96 3d
       0.013131435 0.20919062 0.14076853 0.07347414
0003a0 25 51 8b 3d 2e 7f a1 3e 51 55 ce 3e e7 f0 6c 3d
       0.068025865 0.31542343 0.40299466 0.05784693
0003b0 f4 f6 40 3e c4 f5 b5 be 8e d0 d9 3d 24 e7 26 3e
       0.18844205 -0.35539067 0.10635482 0.1629911
0003c0 8d 1e cb be 03 30 57 3e fb 4e 74 3e 7d 91 ad be
       -0.39671746 0.21014409 0.23858254 -0.3390006
0003d0 98 c1 76 3e e8 7b 7a 3e 30 e2 c7 be b9 f6 62 3e
       0.24097288 0.24461329 -0.39039755 0.2216443
0003e0 e1 0c 11 be 79 b4 19 bc 4e e5 89 3e 04 f0 10 3e
       -0.14165069 -0.009381407 0.26932758 0.14154059
0003f0 65 c9 80 bd bc 85 95 3e 6a 1f 31 be 5a 1a 24 be
       -0.06288413 0.29203594 -0.1729714 -0.16025677

fc3.bias f4 [64]
000000 f6 c7 0c 3f 45 49 8b 3f 7c 34 7c be 7f 93 ce 3f
       0.54992616 1.0881735 -0.24629396 1.6138762
000010 89 34 c7 3e 5c a3 76 3f 60 fc d0 3f 75 76 c8 3e
       0.3890727 0.96343017 1.6327019 0.39152876
000020 71 ff 81 3f 06 b2 0c 3f 3a 13 1a 3f 0f 3d 07 3f
       1.015608 0.5495914 0.6018559 0.52827543
000030 06 00 17 3f 75 a9 91 3e c1 70 cf 3f ee de b7 3f
       0.5898441 0.28449598 1.6206285 1.4364908
000040 e2 40 c6 bf 44 cc f0 3e ea 17 16 3f 02 99 f8 3d
       -1.5488551 0.47030842 0.5863024 0.12138559
000050 a8 85 0b 3f 10 e8 35 be 15 40 ef 3e fe 65 e3 3e
       0.5450082 -0.17764306 0.46728578 0.4441375
000060 9c 81 e4 3e d7 ad 7b 3f 39 52 a9 3f 54 40 c8 3f
       0.44630134 0.98312134 1.3228217 1.5644631
000070 32 90 1d 3f 12 a7 16 3f 0d 48 0f 3f d8 cf 11 3f
       0.6154815 0.5884868 0.55969316 0.5695777
000080 2a fc 09 c0 e0 cf c4 3e aa e6 05 3f cf 5e c1 3e
       -2.1560159 0.38439846 0.5230509 0.37767646
000090 56 e5 8d 3f 39 30 d7 3e 27 57 d4 3e 99 27 b3 3e
       1.1085613 0.42028978 0.41472742 0.34991148
0000a0 d0 70 c9 3e 57 13 cc 3f 4f 21 21 3f 13 d3 d1 3f
       0.39343882 1.5943402 0.6294145 1.639254
0000b0 05 10 02 3f 20 e7 b5 3f 38 48 4b 3f eb 67 90 3f
       0.50805694 1.4211159 0.7940707 1.1281713
0000c0 9f 38 0e 3f 4b 33 15 3f 17 7d 0d 3f 23 4d fc 3e
       0.55555147 0.5828139 0.55268997 0.492776
0000d0 0c 1b d1 3f 12 9c 73 3f 1a ac d2 3f b3 60 07 3f
       1.6336379 0.9516002 1.6458771 0.52881926
0000e0 78 64 cf 3f cf 42 b4 3f 23 1d b5 3e 21 7b 35 3f
       1.6202536 1.4082888 0.35373792 0.70891005
0000f0 e0 76 14 3f 03 5e c8 3f 03 22 4a 3f 4f a3 f7 3e
       0.5799389 1.565369 0.7895815 0.48366782

fc4.weight f4 [3, 64]
000000 d8 89 ea bf a1 93 15 3f 74 25 60 bf d3 83 26 3f
       -1.8323317 0.5842839 -0.8755715 0.650449
000010 4b e8 85 3f 2a 3b 2c 3f 8e ef 2a 3f bd d6 77 3f
       1.0461515 0.6727778 0.6677178 0.9681204
000020 17 cc d1 bf 43 9f a9 3f 0e cc 80 bf 56 b7 51 bf
       -1.6390408 1.3251728 -1.0062273 -0.81920373
000030 78 d5 8d bf d1 9f 80 3d c5 fb 26 3f 2f 92 26 3f
       -1.108077 0.062804826 0.6522792 0.6506681
000040 11 24 4c c0 ba 23 89 3f f7 3b 94 bf c2 30 a5 3f
       -3.1897013 1.0714028 -1.15808 1.2905505
000050 64 41 ac bf 17 99 73 3c 26 94 37 bf 62 0e 89 bf
       -1.3457456 0.014868042 -0.7171043 -1.0707514
000060 d1 fa 82 bf c0 4c 2f 3f 1d 59 1a 3f 8c 7b 25 3f
       -1.0232793 0.68476486 0.60292226 0.6464164
000070 31 c1 56 3f 46 4a 37 3f e2 3d 9a bf 16 9a 81 bf
       0.83888537 0.7159771 -1.2050135 -1.0125148
000080 a2 c3 79 c0 2a d7 fe be f8 13 48 bf 90 a7 65 3f
       -3.9025655 -0.49773532 -0.7815547 0.89708805
000090 86 59 0d 3f 9e 77 c3 3f d0 f2 a8 3f 12 41 71 3f
       0.55214727 1.5270879 1.31991 0.94239914
0000a0 a0 18 6a bf 31 5a 24 3f b3 73 54 3f cf 49 51 3f
       -0.91443825 0.6420012 0.82989043 0.8175325
0000b0 6b f6 b0 bf 6b 83 1c 3f 83 ec 5a 3f 3d b9 25 3f
       -1.3825201 0.6113803 0.8551714 0.64735776
0000c0 e0 52 64 3f 1f 2a 94 bf 51 10 7b bf 7d 41 5b bf
       0.8918896 -1.1575354 -0.9807177 -0.856468
0000d0 a2 2d 33 3f 21 b0 60 3f b7 b9 4a 3f f9 cd 61 bf
       0.69991505 0.8776875 0.7918963 -0.88204914
0000e0 cd d3 37 3f 0b bf 1f 3f 40 ab a5 3f 58 a5 8f 3f
       0.7180756 0.62400883 1.2942886 1.1222334
0000f0 17 13 91 3f 21 80 1e 3f 90 00 ee bf ac 24 8d bf
       1.1333951 0.6191426 -1.8593922 -1.1026816
000100 19 40 e9 bf 60 2f 04 3f 19 81 56 bf 19 c7 24 3f
       -1.8222686 0.5163479 -0.8379074 0.643663
000110 14 4f 8a 3f 92 82 3c 3f b8 5f 3b 3f 36 0c 61 3f
       1.0805383 0.73636734 0.7319293 0.8790926
000120 fd 71 d3 bf 02 71 a9 3f 57 17 87 bf 58 8e 56 bf
       -1.6519161 1.3237612 -1.0553998 -0.8381095
000130 d1 3c 94 bf 10 24 f9 3d 1c 53 39 3f 51 ba 1c 3f
       -1.158106 0.121650815 0.7239244 0.61221796
000140 a3 34 41 c0 18 d0 97 3f 6f 0a 9b bf 69 8a a3 3f
       -3.0188377 1.186038 -1.2112559 1.2776614
000150 7b de b2 bf ae c7 a1 bc 5b 1a 39 bf d3 1a 8a bf
       -1.3974146 -0.019748535 -0.7230584 -1.0789436
000160 fd 64 85 bf 58 91 31 3f 93 b7 21 3f 3c 23 23 3f
       -1.0421444 0.693624 0.6317074 0.6372564
000170 39 17 4a 3f 9a 29 0e 3f 4a d3 a2 bf d0 ab 88 bf
       0.78941685 0.5553223 -1.272073 -1.0677433
000180 36 a3 80 c0 4e a9 d9 be 01 95 57 bf 92 fa 7f 3f
       -4.019923 -0.42511982 -0.84211737 0.99991715
000190 c5 84 0a 3f a5 4c c3 3f c1 33 ad 3f 4f 20 80 3f
       0.5410884 1.5257765 1.3531419 1.000986
0001a0 68 ab 6e bf 1d 0b 2c 3f f0 a3 60 3f d7 f8 48 3f
       -0.93230295 0.6720446 0.8775015 0.785047
0001b0 4a 86 ab bf 28 09 24 3f 64 0b 35 3f 9e 00 15 3f
       -1.3400357 0.6407647 0.70720506 0.58204067
0001c0 0c 7a 4b 3f 77 14 97 bf 5a 42 7a bf 20 87 5e bf
       0.79483104 -1.180312 -0.97757494 -0.86924934
0001d0 f7 64 3a 3f 0d 62 61 3f ef f7 4e 3f e2 38 80 bf
       0.7281031 0.8804024 0.80847067 -1.0017359
0001e0 a1 20 3f 3f 3d eb 23 3f ab 2b b6 3f ce 92 92 3f
       0.7465916 0.6403082 1.4232076 1.1451051
0001f0 6e bc 80 3f 73 69 29 3f c9 5a ef bf df 60 8f bf
       1.0057504 0.6617653 -1.869958 -1.1201438
000200 91 8f e7 bf 0d c5 2c 3f da 99 75 3f a4 63 39 3f
       -1.8090688 0.67488176 0.95937884 0.72417665
000210 4b ce 66 3f bf 4a 32 3f 5c 00 3c 3f 1d 37 6a 3f
       0.9015853 0.69645303 0.7343805 0.91490346
000220 b6 93 d5 bf 8a 08 81 3f 1d 05 8f bf d7 cd 71 bf
       -1.6685703 1.0080731 -1.1173435 -0.9445471
000230 72 e8 80 bf ad 3a 56 bf 46 86 40 3f e2 92 3b 3f
       -1.0070937 -0.8368328 0.75204885 0.73271
000240 92 ce 6c c0 50 50 8a 3f 15 e0 0c 3f 2a fa b9 3f
       -3.700108 1.080576 0.5502942 1.4529469
000250 8f 26 b1 bf 28 2f f1 3c e8 1b 4e bf f9 04 77 bf
       -1.3839892 0.029441431 -0.8051133 -0.9649196
000260 d0 9e ab bf ce d3 39 3f 5c 0b 3b 3f 97 50 36 3f
       -1.3407841 0.72588813 0.7306421 0.7121672
000270 3c e9 72 3f 09 df 86 3f aa d3 98 bf 97 26 60 bf
       0.9488714 1.0536815 -1.1939595 -0.87558883
000280 ef f6 53 c0 e7 24 65 bf f4 7c 78 bf 57 ae 69 3f
       -3.3119466 -0.89509434 -0.97065663 0.91281646
000290 64 54 25 3f f4 32 91 3f 4c fd 94 3f 48 25 16 be
       0.64581895 1.1343675 1.16398 -0.14662659
0002a0 28 94 57 bf 83 ba 32 3f 4d 6b 30 3f 62 2e 14 3f
       -0.84210443 0.69815844 0.6891373 0.57883275
0002b0 41 53 8a bf 6e 48 2f 3f e7 d3 40 3f c8 2a 34 3f
       -1.0806657 0.68469894 0.7532334 0.7037778
0002c0 f1 1e 86 3f 56 0b b6 bf 6c 34 7f bf b0 20 7b bf
       1.0478193 -1.422221 -0.99689364 -0.9809675
0002d0 d9 fe 13 3f e5 8d 49 3f ad b6 1a 3f 97 09 84 bf
       0.5781074 0.7873214 0.6043499 -1.0315427
0002e0 4f f9 44 3f e5 61 39 3f d5 6b 89 3f 6b 8d 95 3f
       0.76942915 0.72415 1.0736033 1.1683782
0002f0 65 a7 8d 3f d4 b1 3b 3f 67 4a a9 bf e7 d4 7c bf
       1.106671 0.7331822 -1.3225831 -0.98762363

fc4.bias f4 [3]
000000 8b c6 83 3f 09 a9 87 3f d9 a8 77 3f
       1.0294966 1.059846 0.96742016
