trained_models/checkpoint_v1.pth (torch, 22551 bytes, 6 tensors)

fc1.weight f4 [64, 12]
00000000: 7e96 c23e afea 2d3f 2de7 aebe b111 e43d
00000010: 57a9 f73e 9f5a 0b3d a9d2 8ebd 707b 95be
00000020: 6d8c 9ebe 964b 73bd 54a0 2abb b6b3 d9be
00000030: b376 ba3f 9cf3 24bf cdfd 8b3e 84d8 a73f
00000040: 9f54 d1bf 70c2 48c0 32a1 cb3f aa9b a9bf
00000050: 3f4d b7bf 0fdf 61c0 2037 7b3c 0b18 1d3d
00000060: b4fa 1fbd 3408 b93d 7884 503e d74e 14be
00000070: 707e 693e f8d4 f73d aacf 94bd 9ada 3dbe
00000080: 6c4a 3b3e ae8a 053e 5b22 12be 2b8f 73be
00000090: d7e7 3ebf 63c4 01c0 894a 9d3d 0c7f 01c0
000000a0: 0b1c 143f d945 803f fa62 5a3f 0a7f c73e
000000b0: 0014 65bf 07f9 d1bf ab53 b33d 2853 ec3c
000000c0: 5669 b5be 9bda 913e 040c 57bf e2bb 663f
000000d0: 3535 083f e2cb 953f c79b 65be 4cb2 063f
000000e0: 6a09 06bf f373 bf3e 7614 583e 8ea8 17be
000000f0: 6823 1cbd e005 ba3d 800e 093d 3cc2 a03d
00000100: 80b3 5d3e e8d4 6bbd ec76 5c3e 4e8c 803e
00000110: 28cd 6a3e a0c0 f23d 1c22 32be 98b3 e2bd
00000120: f267 1f3f ae1a 463f 3017 8e3e 6a0b e4bf
00000130: c69f 66bd df06 003f 0ca0 5440 2f97 39bf
00000140: 4af9 6a3f 5e48 973e b980 513e 221f 92bb
00000150: b2a7 8c3d d271 583f f888 3c3e f0b8 05c0
00000160: 7097 863e 9c54 1c3e 90cb 20be 33a2 aebe
00000170: a88d 9abf f97f 303f f49a bbbe ebcd 9d3d
00000180: e1af 163f 1a49 f5bf 31e5 ddbf bd1e 46bf
00000190: f4d0 9d3f 8f3c d1bf 0cc9 debf 41c0 b3bf
000001a0: 3c12 f2bd d5b5 a9bf 584b 7d3d f46d b7bc
000001b0: 2b1d a3bf 78ed 07c0 1a3d 2e3f 46cb e93e
000001c0: 4a79 b53f be7a dcbe 694a 3140 8feb 45bf
000001d0: d0ac 46c0 be9b e23f 51cd 8abe af44 263e
000001e0: 694d 43bf bc26 423f 909f 2f40 d7cc 27c0
000001f0: c52c 2ebf 51ce 6d3f 667c 623f 0b3f 123e
00000200: 1937 5fbe 3acb 4fbf 7b5d 60bd 8c42 153d
00000210: aca1 703e a0ac 06bc 72b1 b6bd 08d0 2dbd
00000220: 0c33 563e f08b fbbc 1042 b03c 1cbb 653e
00000230: 0626 f2bd b446 8dbe 2f01 65be 1041 b43c
00000240: cdb1 513e 80cf 00bf bdb4 ce3e b1eb 45c0
00000250: 2ef3 a0be 473b 1d3f f9e6 acbf 4aec 673e
00000260: d823 0a3f a981 e23e e362 01be 68ae 2e3e
00000270: b70d 67be c064 1c3e 4cb4 a83d 5828 e8bd
00000280: 989d b23d 7c57 613e 0234 68be a211 8b3e
00000290: d4dc b93d 606e 57bd 9c7b 04be 6ec0 34be
000002a0: f10a 3e3c a28d 09be 1f75 1c3e 3ac6 e03e
000002b0: 2993 f3be 3bb5 933c ba0b 20be 3354 563d
000002c0: 01fb a83e b5ba c1be fa74 6e3e baef e6be
000002d0: a6b6 26c0 cbcc 20bf 10fe b9bf 0184 a0bf
000002e0: 6e33 ed3f f1ca a2bf 1192 3ec0 674c 473f
000002f0: ad8a 4a3f 212c 59bf 72cc a6be 42ec b13d
00000300: 4c26 003e 1a97 d03d d8f8 7f3e fc7a e43d
00000310: 3c7a 163f 74d6 05be 339f e13e 9114 d0be
00000320: 2bc9 afbe a1fd 32bd 01fa 753e 4c60 afbe
00000330: 15bc f5be 3d13 87bd 7baa 95bd 8ca2 8dbe
00000340: 5054 43bc ed27 02be ba7f a53e 67f4 07be
00000350: d15b 9f3e da1f ed3e 7f31 713e afd5 e6be
00000360: 51fd f33f af0c 8b3f 26f3 c73e d548 843f
00000370: 3cf0 023f d9ca 1a40 ad46 233f 5385 cbbf
00000380: 4017 23c0 55a2 0140 664c 4dbd bb45 273d
00000390: 2aaf 56be 6abe 8c3e d84e 95bd 2861 8ebe
000003a0: 40ba 7b3e d42c 8fbe a8b0 873e c422 80bd
000003b0: 348f 34bd 3014 fcbc 12a3 54be c007 89bb
000003c0: 89e5 9abe a0c9 1240 ba86 e8bf b183 1d3f
000003d0: 8e0e 09c0 63da 0fbf 0863 a23f 1ce8 933f
000003e0: 17ea 7f3d b5ad ef3c c72f cfbe d535 f43d
000003f0: 85dd 87bf c389 3240 5e72 35c0 86be 1ec0
0.3800544 0.67936224 -0.34160748 0.11136187 0.48371384 0.03402197 -0.06973774 -0.29195738
-0.3096651 -0.059398256 -0.0026035504 -0.4251992 1.4567474 -0.6443422 0.27342072 1.311295
-1.6353949 -3.1368675 1.5908568 -1.325063 -1.4320449 -3.5292394 0.015332967 0.038353007
-0.03905745 0.09034768 0.20363033 -0.144832 0.22802138 0.121011674 -0.07266171 -0.18540421
0.18290108 0.13041183 -0.14270918 -0.23785083 -0.7457251 -2.0276115 0.07680232 -2.0233793
0.5785529 1.0021316 0.85307276 0.3896411 -0.8948364 -1.6404122 0.08756193 0.028848246
-0.35431927 0.28487095 -0.8400271 0.90130436 0.5320619 1.1702845 -0.22422706 0.5261581
-0.52358115 0.3739315 0.21101555 -0.14810392 -0.038119704 0.09083152 0.033461094 0.07849547
0.21650505 -0.05757609 0.2152974 0.25107044 0.22929823 0.118531466 -0.17395824 -0.11069411
0.6226798 0.7738446 0.27752066 -1.7815983 -0.056304716 0.50010484 3.3222685 -0.7249631
0.91786635 0.295474 0.2045926 -0.0044592777 0.06867923 0.84548676 0.18411624 -2.0894127
0.26287413 0.15266651 -0.15702653 -0.34108123 -1.207448 0.6894527 -0.36641657 0.07705291
0.5886212 -1.9162934 -1.7335569 -0.7739065 1.2329392 -1.6346606 -1.7405105 -1.4043046
-0.11819884 -1.3258616 0.06183943 -0.022391297 -1.2743276 -2.123869 0.68061984 0.45662898
1.417764 -0.43062395 2.7701666 -0.7731256 -3.1042976 1.7703779 -0.2710977 0.16237138
-0.76289994 0.75840354 2.744114 -2.6218774 -0.6803706 0.9289294 0.88471067 0.14281861
-0.21798362 -0.81169474 -0.05477665 0.036440417 0.23499173 -0.008219868 -0.08920564 -0.042434722
0.2091791 -0.030706376 0.021515876 0.22434658 -0.11823659 -0.27593005 -0.22363733 0.02200368
0.20477982 -0.5031662 0.40372267 -3.0925105 -0.3143553 0.61418575 -1.3507987 0.22648731
0.53960943 0.44239548 -0.12635379 0.17058718 -0.22563826 0.15272808 0.08237514 -0.1133582
0.08721465 0.22006029 -0.2267609 0.2716189 0.09075323 -0.052595496 -0.12937778 -0.17651531
0.011599288 -0.13432935 0.15279053 0.43901235 -0.47573212 0.018030753 -0.15629473 0.052326392
0.33004 -0.3783776 0.2328681 -0.45104772 -2.604898 -0.6281249 -1.4530659 -1.2540284
1.853132 -1.2718183 -2.9776652 0.77850956 0.7911785 -0.8483296 -0.32577854 0.08687641
0.12514609 0.1018507 0.2499727 0.1115627 0.58780265 -0.13070089 0.44066772 -0.4064069
-0.34333166 -0.04369891 0.2402115 -0.34253156 -0.47995058 -0.06595466 -0.07307907 -0.27663076
-0.011921957 -0.12710543 0.3232401 -0.13276826 0.31124738 0.46313363 0.23554038 -0.45084903
1.9061681 1.0863246 0.39052695 1.0334727 0.5114782 2.4186308 0.6377972 -1.5900062
-2.548294 2.025533 -0.050121687 0.040837985 -0.20965257 0.27489024 -0.07290429 -0.278085
0.24582767 -0.2796389 0.26501966 -0.06256631 -0.04408188 -0.030771345 -0.20765331 -0.004181832
-0.30253246 2.2935562 -1.8166115 0.6152907 -2.1415133 -0.56192607 1.2686472 1.1555209
0.062479105 0.029257635 -0.4046614 0.1192433 -1.0614477 2.7896583 -2.8351054 -2.4803786

fc1.bias f4 [64]
00000000: 72fe 833e 31ff 55bf 7f82 2ebe e616 e3be
00000010: 936d e73e e053 5fbc 7b0c b5be 1879 153f
00000020: 7878 763f 3d92 55be 0496 89bd fe22 83be
00000030: d7a8 18bf ff9d 16be 0b69 9c3c 3b48 103f
00000040: 4ccc 24bd edbb 5e3e e114 263e 007b a23b
00000050: 0528 5b3e f578 c0bc c046 7cbc dfc6 be3e
00000060: da0c bd3d cc9d 08bf b9ff ffbe 76c5 2dbf
00000070: 5fc7 ce3e 6035 f4bc 7040 2e3d 3ce2 8b3e
00000080: 27b6 173f b5fe 683e 7038 81bc 5451 d03e
00000090: c043 32be 931b 87be f493 853e 7572 123d
000000a0: 0378 40bf 84b8 023f 98db 953e c301 4b3f
000000b0: fdfd 7e3e 8b7b 063d 9588 bdbd 0b62 12bf
000000c0: 117a 3c3d 9ea7 9a3e 91e7 8cbe 7e70 b63e
000000d0: e897 ff3d d485 aebe 46bd 143f 1fae 4abf
000000e0: ee71 193f aa4c 21be 8163 3c3f dfdf b2be
000000f0: 8846 e7bd c8bc 4d3d 4737 e0bd a0e2 a1be
0.25780064 -0.83592516 -0.17041968 -0.44353408 0.45200786 -0.013630837 -0.35361084 0.583879
0.9627757 -0.20856567 -0.06718066 -0.25612634 -0.5963263 -0.14708708 0.019093057 0.56360215
-0.040233895 0.21751375 0.16218902 0.0049585104 0.21401985 -0.023495177 -0.0153977275 0.37261102
0.09230967 -0.5336578 -0.49999788 -0.67879426 0.40386483 -0.029810607 0.04254192 0.2732104
0.5926232 0.22753413 -0.015773982 0.40687048 -0.17408657 -0.26388225 0.26089442 0.035753686
-0.75183123 0.510628 0.292691 0.79299563 0.24901576 0.032832664 -0.092545666 -0.5718085
0.04601485 0.30206007 -0.2752042 0.356327 0.12480146 -0.34086478 0.5810131 -0.7917194
0.5993947 -0.15751901 0.7358933 -0.34936425 -0.1129275 0.050228864 -0.10948043 -0.31618214

fc2.weight f4 [64, 64]
00000000: 59c7 87bd df2a debb 7294 bc3d b83b 9e3d
00000010: a4eb ed3b 2e2d 803d 49c6 01bd 5c37 073d
00000020: 8f4c b8bc 10e9 8abc d383 b5bd 388b fbbd
00000030: a73c 1abd 46ff 8abd ac28 64bd d615 863d
00000040: 4738 d73c 7c1e df3c 9a79 2cbe e003 0fbc
00000050: fca6 25bd c388 d6bd 7e23 91bd 97af 973d
00000060: 9504 abba 04dd 07be 88d2 89bd aadc 25be
00000070: 8f4c 14be 0018 f338 7c69 6ebd 96c0 d03d
00000080: a9ca 0fbe fd16 9ebd a442 4bbd 9daf b4bc
00000090: c067 c13c e04c 5abc d79a 733c b315 1c3d
000000a0: 6356 66bd 36e7 64bd dc40 333d ab18 763d
000000b0: ddd3 513c 6969 45bd 1b1e cdbd 102f 2ebd
000000c0: 7142 d33d 94af bbbd 10c3 7abc cfab 03be
000000d0: 4010 04bd 58d9 a23d a983 d03d 5dc9 04be
000000e0: 3c60 ffbc 9472 efbd 77b6 a6ba 49a9 313c
000000f0: 147b ebbd 28a3 df3d a802 b7bc cf9d bbbb
00000100: 9451 10be e46b 9b3d 4a5d 9f3d 0e59 b0bd
00000110: 3683 ddbe 4c01 1abd 03bf 573e 1409 eabe
00000120: 9d9e 0cbd 4f1b 31be f44d c53d fe5a cabd
00000130: e3c8 933d ccf8 c23d fe2b 463c 6adc 5d3d
00000140: cce6 753d 6eaf c0bc 445f 913e b201 af3d
00000150: 8569 85be b63b bd3e a012 8abd 784e 693e
00000160: 9406 013d edee 383c 1007 65bd 8ff5 543e
00000170: 52a0 2dc0 74ec a73d 5621 9cbd 4a64 f1bd
00000180: 284f 44bf 3a0f b73d f0ba b3bc f688 823e
00000190: 740c febd 35a4 263d 6b9a 9ebf da9d b9be
000001a0: 2a2b d3bd 9f63 813b 8dfb 1b3f 58d5 b73b
000001b0: 64cd 4abb 028a 65bd e457 c6bd 613d d13d
000001c0: cc62 59bb aed6 bcbe 60af 2b3d 8942 773f
000001d0: 42ae c83d 49d2 963e 168c 02c0 1e6a 8a3e
000001e0: 055d 11be 4250 8cbd ea41 c03d baf1 823b
000001f0: 108e 57bd 02f2 a1bd 9795 24be 37b1 053f
00000200: bc0a b6bd 2dab c53c b003 1a3d fd36 c1bd
00000210: 3f83 903c 6878 f93c 36e1 75bd 0694 82bd
00000220: 2e32 48bd 34e3 b13d 685c 4fbd 3c04 8dbd
00000230: 8ee6 05be babb d93d 0e09 3f3d 4311 04be
00000240: 5681 47bd 44ff 22be eda2 b6bd 54cd 27bd
00000250: 7b7a cbba c627 f2bd 006a f439 205b b6bc
00000260: a8d1 093d 7976 543d b37a 31bd e7e1 c8bd
00000270: cb00 d43c 6879 4a3d 34a8 afbd f666 8cbd
00000280: fefd f9bd e16b 8fbd d47e cd3d 3b8a f73c
00000290: a4bd 273d c85e e1bc 7c77 afbd fc40 4dbd
000002a0: fe32 a1bc eb2c 00be 60b5 7b3d 168a a4bd
000002b0: 50de 953d 42ed 363d 14db 07be ea1a e83d
000002c0: 1173 963d 4bba 7a3d 9849 6e3d 77ab 043d
000002d0: 36cc dabd c380 ffbc de47 1fbd 9809 15be
000002e0: a414 023d 3042 bf3d d9c3 973d d0bb 143d
000002f0: fe1d b2bd 9877 493d f53d 983b a745 d83d
00000300: 21ca d9bd b0ab 633e 241e 093d ba06 3cbe
00000310: f6bc 87bf 6c1a a3bd ebb0 f43d a1b0 cdbd
00000320: 21a0 4abe 2834 963d ab5e 4dbe b0c2 a93c
00000330: d8b6 82bc 8601 fdbd dc3e aabe 6e1b 7bbb
00000340: c789 81bd 0f4e fd3b b610 8cbc 5047 5b3d
00000350: b341 3a3d 0ee3 aa3e 9ee5 8e3d 163d 23be
00000360: b1fc 2f3e fba9 31bd 8d61 383d 8f14 10bd
00000370: f601 b6bf c238 933d c0df 9a3c 961f 953d
00000380: 2b99 ff3c 7784 0b3e e684 c83d 25a2 513e
00000390: aebb a7bd 87ee bf3b 52bc a0be 7eb9 0d3e
000003a0: 282c ba3d 4035 e53d 909c 4e3e 6ed5 853c
000003b0: 3c12 4fbb 455a a83a c847 31bb 0d78 80be
000003c0: 0601 72bd 21a9 b6be 3078 15bd e002 e53e
000003d0: 080d fabc 0d66 4d3e 14c1 d7be 64db 2d3e
000003e0: df04 973d 4026 01bd 8bf5 613e 6da5 c4bc
000003f0: b0f6 73bd 5e41 c5bd 7027 9a3c b987 6cbd
-0.066298194 -0.006780013 0.09208001 0.07726234 0.0072607566 0.06258617 -0.03168324 0.03301178
-0.022497443 -0.016956836 -0.08863034 -0.12282413 -0.0376555 -0.06786971 -0.05570285 0.065471336
0.026271952 0.027236216 -0.16843262 -0.008728951 -0.04044245 -0.10475304 -0.07086848 0.07406538
-0.001304763 -0.13267905 -0.06729609 -0.16197458 -0.1448233 0.00011591613 -0.058206066 0.10192983
-0.14042152 -0.077192284 -0.0496241 -0.022056395 0.023609042 -0.0133239925 0.01486846 0.03810663
-0.05623473 -0.055884562 0.043763027 0.06008212 0.01280686 -0.04819623 -0.10015508 -0.04252535
0.10315407 -0.09164348 -0.015305296 -0.12858509 -0.03224206 0.07951611 0.10181362 -0.12967439
-0.031173818 -0.11691776 -0.0012719174 0.010843583 -0.11498085 0.109197915 -0.022340134 -0.0057255994
-0.1409362 0.07588938 0.07781465 -0.08610736 -0.43264169 -0.037598893 0.21068959 -0.4571005
-0.034330953 -0.17295574 0.09634009 -0.09880637 0.072160505 0.095201105 0.0120954495 0.05416528
0.06003456 -0.023521151 0.28392994 0.08545245 -0.26057068 0.36959618 -0.06741834 0.2278384
0.031500414 0.011287433 -0.05591494 0.20796798 -2.7129102 0.08199397 -0.07623546 -0.11786707
-0.7668328 0.08938451 -0.021939725 0.25495118 -0.12404719 0.040683944 -1.2390875 -0.36253244
-0.10310967 0.0039486433 0.6093071 0.0056101494 -0.0030945176 -0.056039818 -0.096847326 0.10216785
-0.003317046 -0.36882538 0.041915298 0.965859 0.09798862 0.2945731 -2.0398002 0.27034086
-0.1419564 -0.068512455 0.09387572 0.003996101 -0.052625716 -0.079074875 -0.16072689 0.52223533
-0.08888766 0.024129475 0.037601173 -0.09434316 0.017640708 0.030452922 -0.06002923 -0.063758895
-0.04887598 0.08685914 -0.050625235 -0.06885573 -0.13076231 0.10631509 0.046639495 -0.1289721
-0.04870733 -0.15917689 -0.089177944 -0.0409673 -0.0015524173 -0.118239924 0.00046618283 -0.022260249
0.03364721 0.051870797 -0.043329906 -0.098087125 0.025879284 0.04943219 -0.08577004 -0.06855576
-0.12206648 -0.07002998 0.10033956 0.03021728 0.04095234 -0.027511016 -0.08567712 -0.050110802
-0.019677635 -0.12517135 0.06145227 -0.0803415 0.07317793 0.04465986 -0.13267165 0.113332585
0.07346166 0.06121282 0.058175653 0.032390084 -0.106834814 -0.031189328 -0.038886897 -0.14554441
0.031757966 0.09338796 0.07410402 0.036311924 -0.08697127 0.04918632 0.0046460577 0.1056016
-0.10634256 0.22233462 0.03347601 -0.18361941 -1.0604541 -0.07964024 0.11947807 -0.10043455
-0.19787647 0.07334167 -0.20055644 0.020722717 -0.015956327 -0.12353806 -0.33251083 -0.003831591
-0.06325107 0.0077302526 -0.017097812 0.053534806 0.045472812 0.33376354 0.0697739 -0.15941271
0.17186238 -0.043374997 0.045014907 -0.035175856 -1.4219348 0.0718856 0.01890552 0.07281415
0.031200966 0.1362475 0.09790973 0.2047201 -0.08190094 0.005857292 -0.31393677 0.13840291
0.090904534 0.11191797 0.20176911 0.016337123 -0.0031596562 0.0012844285 -0.0027050842 -0.2509159
-0.059083007 -0.3567591 -0.036491573 0.44728756 -0.030523792 0.2005846 -0.42139494 0.16978222
0.07373976 -0.03153062 0.22066323 -0.024004662 -0.05956143 -0.096316084 0.018817633 -0.057746623

fc2.bias f4 [64]
00000000: 9e17 99bd 5d7b 683e 7c2f d2bd cc81 1ebf
00000010: e27e 1bbe ff0c fbbb b44f b1bd bc6c 6cbe
00000020: ea85 07be 0d43 acbe 5ccb 623c 791c c1bd
00000030: dd53 933d b020 c63d b97e 573d 75cf 65bd
00000040: 8795 23bc cbb1 ce3c 70d3 adbd ec15 b8be
00000050: 5877 13bd d412 323d 8737 403f 4dc6 85be
00000060: 1a36 903d 188b 37bf 7e90 fa3d d4fb a5bd
00000070: 50aa 28bd 61b3 fe3e 4d65 c63d 96c2 2fba
00000080: b9bc 953e fd71 9a3d 2473 2f3f 9122 d5ba
00000090: d62a f43e 3d6b 463f 5e8f 2dbe 6605 bfbd
000000a0: abc2 29be ed2a dabd cd5e 3a3d 6ca7 793e
000000b0: c829 c1bd 7d7b 7a3d 6432 163c beca 1ebe
000000c0: 50c7 8fbd 0e75 133f 3851 cabd ec9f 143c
000000d0: 5f13 fdbc 3815 0e3f 378f f3be 3c53 ea3d
000000e0: 57ef acbd 29fa 97bd f23f 6a3d 2c49 1dbe
000000f0: 6354 f6be 6a06 cebe 4864 763d e553 e7be
-0.07475208 0.2270331 -0.10262963 -0.61916804 -0.1518512 -0.0076614614 -0.0865778 -0.23088354
-0.13234678 -0.33644906 0.01384243 -0.09429259 0.0719373 0.096742034 0.052611087 -0.05610605
-0.009984381 0.025231263 -0.08487594 -0.35954225 -0.036002487 0.043474987 0.7508473 -0.26127854
0.07041569 -0.71696615 0.12234591 -0.08104673 -0.041178048 0.4974623 0.0968729 -0.0006704716
0.29245546 0.07541273 0.68535066 -0.0016260912 0.4768893 0.7750738 -0.16949221 -0.093272015
-0.16578166 -0.10652719 0.045500565 0.24380273 -0.09431797 0.061152924 0.0091672875 -0.15507028
-0.07020438 0.57600486 -0.098787725 0.0090713315 -0.030893026 0.5550113 -0.47570202 0.11441657
-0.08444088 -0.07420761 0.05718989 -0.15359944 -0.48111257 -0.4023927 0.06015423 -0.45181194

fc3.weight f4 [3, 64]
00000000: 19e5 4c3d bb91 883f bdbd 43bd 7b81 a63d
00000010: 788e ea3d 8b2f dabd 338a 3abd 3384 4bc0
00000020: 1db1 dd3d 8153 92bf 664d dd3d 0ff5 dabc
00000030: 8e66 1bbd 2382 9cbf 2cf1 cabf fba8 90bd
00000040: df0a 9d3d 1df1 0dbd 80b8 463e 2aad 39bf
00000050: 5c8b fd3d 38b6 ec3f 58f3 1a3f caa5 973f
00000060: 974f e13d ab3b 763e 07d0 3440 9ce7 523d
00000070: 42d2 96bd d679 66bf f125 c33d be20 ccbd
00000080: 49f4 f73f d8c3 23bb 5074 82bf 2756 2a40
00000090: a034 883f 5dfb 19bf fadc b63e 0b0f be3f
000000a0: 80fb 05c0 c0da 863d 0bf2 6140 ebf9 1e40
000000b0: e3be 16bd 74de 15bc a020 2c3f 3c92 5d3d
000000c0: db8e ccbe abcf ae3f a3e2 bb3c ffe6 0c40
000000d0: 6d82 ecbd 9aa5 083f a9e7 c23f 88cb 98bf
000000e0: 3ced b7bd 1f16 6a3b f65a 63bd 006e 81bd
000000f0: 58b5 f83d 38b3 8e3d 36b0 1a3d e7c1 2040
00000100: e6eb 2e3c d093 863f c90e 713d d5a1 d33d
00000110: 37be 313e 4654 bc3d 4568 883d a429 49c0
00000120: 7bb8 cebd 801f 91bf 8bd1 83bb a021 68bd
00000130: 4aa1 e9bd 3d80 94bf 22ff c9bf a99f 92bd
00000140: 4fd6 f9bb b746 5a3d df24 3c3e 01f9 30bf
00000150: 003b aaba 2966 ed3f bf9b 143f 6ea5 953f
00000160: 7f26 83bd cf68 413e 69be 3040 d0d3 b53d
00000170: 9c05 76bd ef2c 5abf 421c b1bd 8ae7 3fbd
00000180: 967d f23f 8d6f 6d3d f787 87bf 8ff4 2740
00000190: 8237 813f 7e84 0abf 0037 743e 20db c33f
000001a0: b33c 02c0 40d7 223d 0d98 6440 7a69 1b40
000001b0: 7046 223d b508 803d 8cde 1e3f 3203 89bd
000001c0: 97dc abbe d752 aa3f cf3c f7bb a7d7 0b40
000001d0: bcf5 d0bd 715d fd3e a62f c93f 6a16 97bf
000001e0: ebe4 30bd 6870 b63c 3923 70bd 248c e0bb
000001f0: dd34 033e 6763 df3d a257 86bc ffda 1a40
00000200: c017 d33d 67ae 853f 4879 d1bd 09c1 823e
00000210: c58d 063e fc06 453d 5c77 83bc 0f45 50c0
00000220: 4faf 093d 0563 a5bf 085e ba3b 05f5 ae3d
00000230: 1a7e 03bd 15b6 9ebf c4f8 dbbf 4bd5 0f3d
00000240: 2020 db3d 294b c83b c463 c7be 834a 37bf
00000250: 0ee9 f4bc b2d8 0140 fc6e e33e 4e9c 993f
00000260: d5be 93bd fbbb 183f 649c 4640 40a8 d7bd
00000270: c984 9e3d 8ceb 6ebf 0574 863a fcf3 c63d
00000280: daf2 0440 fa47 cabd a1ce adbf 0739 2e40
00000290: ba3a 483f bf69 75bf ce29 e63d 246d dc3f
000002a0: b171 0dc0 be05 16bd 4dfd 7540 38c9 1e40
000002b0: ec38 5f3d 8cb8 f63b ebb4 403f a8fe 7a3d
000002c0: c3a0 453e 8dd8 d43f cf07 3f3d 74e9 1d40
000002d0: cef9 e2bc 5f35 523e bd44 d83f 861f 93bf
000002e0: b422 0b3d 5e2e f5bd e623 9a3d 9ffd edbc
000002f0: 04ec 973e de9b b23e 643b 17bd 6276 3240
0.050023172 1.0669473 -0.04778837 0.08130165 0.11452955 -0.10653599 -0.045541953 -3.1799438
0.10824797 -1.1431733 0.10805778 -0.026728181 -0.0379396 -1.2227215 -1.585485 -0.070634805
0.07668089 -0.03465377 0.19406319 -0.7252985 0.12380096 1.8493109 0.60527563 1.184747
0.11001509 0.24046199 2.825197 0.05149041 -0.07364322 -0.90029657 0.09528721 -0.099671826
1.9371425 -0.0024988558 -1.0191746 2.6615083 1.064106 -0.60149175 0.35715467 1.4848341
-2.0934753 0.06584692 3.5303981 2.4840038 -0.036803138 -0.009147275 0.6723728 0.054094538
-0.3995274 1.3657125 0.022935217 2.201599 -0.11548314 0.5337769 1.5226947 -1.1937113
-0.08980796 0.0035718752 -0.05550667 -0.06319809 0.121439636 0.06967777 0.037765704 2.5118349
0.01067636 1.0513859 0.05885199 0.103336014 0.17357717 0.091957614 0.06660513 -3.1431665
-0.100937806 -1.1337738 -0.004022782 -0.056672692 -0.114077166 -1.1601635 -1.5780985 -0.07159359
-0.0076244245 0.053290095 0.1837344 -0.6912995 -0.0012987554 1.8546802 0.5805015 1.169111
-0.06403827 0.18887638 2.7616217 0.08878291 -0.060063943 -0.85224813 -0.08647968 -0.046851672
1.8944576 0.05796771 -1.0588368 2.6243017 1.0095065 -0.5410842 0.23849106 1.5301247
-2.0349548 0.03975606 3.5717804 2.4283128 0.039617956 0.06251661 0.6205833 -0.066900626
-0.33566734 1.3306531 -0.0075450907 2.1850374 -0.1020312 0.49485353 1.5717666 -1.1803715
-0.043187063 0.022270396 -0.05862734 -0.0068526436 0.12813134 0.10907631 -0.016399208 2.4196165
0.10307264 1.0443848 -0.10228211 0.255379 0.13140018 0.048102364 -0.016048126 -3.254215
0.033614453 -1.2920843 0.005687479 0.085428275 -0.03210268 -1.2399317 -1.7185292 0.03511552
0.10699487 0.0061124754 -0.38943303 -0.7159807 -0.029896285 2.028851 0.44420612 1.2000825
-0.07214133 0.59661835 3.1032953 -0.10530138 0.077401705 -0.93328166 0.0010257965 0.09714505
2.0773225 -0.0987701 -1.3578683 2.7222307 0.7821461 -0.9586448 0.11238442 1.7220807
-2.2100642 -0.03662657 3.8435853 2.4810314 0.054497644 0.007529324 0.7527606 0.061278015
0.19299607 1.6628586 0.046638306 2.4673738 -0.027707007 0.20528172 1.6895977 -1.1493995
0.033968642 -0.119717345 0.07526378 -0.0290516 0.29672253 0.34884542 -0.036921874 2.7884755

fc3.bias f4 [3]
00000000: 1811 f63e acab f93e fba1 4cbf
0.48059916 0.48763788 -0.7993466
