trained_models/checkpoint_000997.pth (torch, 107727 bytes, 8 tensors)

fc1.weight f4 [128, 10]
0	0xbe1dc389	-0.15406622
1	0x3ec5a64f	0.38603446
2	0x3ee27207	0.4422762
3	0xbe78eb55	-0.24308522
4	0x3dec9587	0.115519576
5	0xbe38b6d7	-0.18038498
6	0xbee7c542	-0.45267683
7	0xbe52156c	-0.20515984
8	0x3ecc9320	0.39955997
9	0x3d99092e	0.07472454
10	0xbdefd80a	-0.11711128
11	0xbeb3d0e7	-0.35120317
12	0xbd8a352b	-0.06748422
13	0x3ee288fb	0.44245133
14	0xbd02be8a	-0.031919993
15	0xbef83423	-0.48477277
16	0xbeefdafe	-0.46846765
17	0x3dc2c8f4	0.09510985
18	0x3ea83b09	0.3285754
19	0xbea6a3b9	-0.32546785
20	0x3e9470e1	0.2899237
21	0xbeb6e187	-0.3571894
22	0xbe41837f	-0.18897818
23	0x3e5320af	0.20617937
24	0xbd5556b9	-0.05208466
25	0xbea1fc8f	-0.31638
26	0x3e4bf53d	0.1991777
27	0xbe91f933	-0.28510436
28	0x3efc57cf	0.49285743
29	0xbe5196a3	-0.2046762
30	0xbe514283	-0.20435528
31	0x3ec76d5f	0.3895063
32	0x3e053210	0.13007379
33	0xbeb043b2	-0.34426647
34	0xbeab6c9d	-0.33481303
35	0xbea81ba6	-0.32833594
36	0xbe1af1c3	-0.15131287
37	0x3e1ea9d6	0.15494475
38	0x3e93fa93	0.2890211
39	0x3e0d3d09	0.13792814
40	0xbeb0ae85	-0.34508148
41	0xbe87f6e2	-0.26555544
42	0xbe598211	-0.21241023
43	0xbdbef277	-0.0932359
44	0xb7640a44	-1.3592249e-05
45	0x3e8e7a65	0.27827755
46	0xbed53434	-0.4164139
47	0xbeb7ff89	-0.35937145
48	0xbeb4ee25	-0.3533794
49	0x3e73a574	0.23793584
50	0xbe951e56	-0.29124707
51	0x3c11079d	0.008851913
52	0x3cf279e9	0.029599147
53	0x3e3ea374	0.1861704
54	0x3f0995bd	0.5374411
55	0x3eba0c1e	0.3633737
56	0x3e961ea4	0.29320252
57	0x3e245b91	0.16050555
58	0xbeddcb36	-0.433191
59	0xbea3665b	-0.3191403
60	0x3eec3fc6	0.46142405
61	0x3e924c75	0.28573957
62	0x3ec5e5bd	0.3865184
63	0x3e9e5b30	0.30928946
64	0x3e96e7a0	0.2947359
65	0xbe99e119	-0.30054548
66	0xbe74f86c	-0.2392289
67	0x3ae51fdc	0.0017480808
68	0x3e42e1ca	0.19031444
69	0xbdaaf970	-0.08348358
70	0x3eb01e12	0.34397942
71	0xbec3ef1e	-0.3826837
72	0x3eb24a6c	0.34822404
73	0x3e521415	0.20515473
74	0xbf12d6b8	-0.57358885
75	0xbb1f3fbd	-0.0024299466
76	0xbe07dbb9	-0.13267411
77	0xbe4d3c40	-0.20042515
78	0x3f172270	0.5903692
79	0xbeadd2b4	-0.33949816
80	0x3e32ae23	0.1744924
81	0x3edb4d37	0.42832348
82	0xbf284a24	-0.6573813
83	0x3db10da5	0.086451806
84	0xbe90badd	-0.28267565
85	0xbd571dee	-0.052518778
86	0x3eeb3385	0.45937744
87	0xbe3a3ded	-0.18187685
88	0xbc6c9021	-0.01443866
89	0xbc010004	-0.007873539
90	0x3d3e4b05	0.046458263
91	0x3e943ffd	0.2895507
92	0x3e4b799c	0.19870609
93	0xbe9c1023	-0.3048106
94	0x3ea554fe	0.32291406
95	0xbe19c625	-0.15016992
96	0xbef9d944	-0.48798573
97	0xbb19c247	-0.0023461746
98	0xbe0c2a6e	-0.1368806
99	0x3d69bdfb	0.057065945
100	0x3e98cbc7	0.2984297
101	0x3f1c9e8f	0.6117944
102	0xbdb113f0	-0.08646381
103	0x3efbf1f0	0.4920802
104	0xbe86a922	-0.26300913
105	0xbe9dca0d	-0.30818215
106	0xbb9fb828	-0.004874248
107	0xbeb9801b	-0.3623055
108	0x3ea94a79	0.3306463
109	0x3ec021b5	0.37525716
110	0xbe91d0c5	-0.2847959
111	0x3ed59ea4	0.41722596
112	0x3e575efd	0.21032329
113	0xbf124e4d	-0.5715073
114	0x3e429970	0.19003844
115	0x3e31ad9a	0.1735138
116	0xbe21e3c5	-0.15809543
117	0x3ee9bacc	0.45650327
118	0x3d9a2524	0.07526615
119	0xbe2211c0	-0.15827084
120	0xbe7694b8	-0.24080169
121	0xbeda7e48	-0.4267447
122	0x3ecbdd1b	0.39817128
123	0x3de9e894	0.11421314
124	0x3ebbbc8b	0.36667284
125	0x3f19f287	0.6013569
126	0xbd57c2ac	-0.052675888
127	0xbe20eb44	-0.15714747
128	0x3e4dc550	0.200948
129	0x3ef6d840	0.4821186
130	0xbcea35c4	-0.02859009
131	0xbf0f3b06	-0.5594944
132	0xbe4d6c56	-0.20060858
133	0xbdae01c6	-0.08496432
134	0x3d98a2e3	0.07452943
135	0xbe976578	-0.29569602
136	0xbe9b139a	-0.30288392
137	0xbd1b90a1	-0.037979726
138	0xbe17107e	-0.14752385
139	0x3f33955a	0.7014977
140	0xbeab2481	-0.33426288
141	0xbecc8869	-0.39947823
142	0xbe3787a6	-0.1792284
143	0x3d5c37b2	0.053764053
144	0xbdf48387	-0.11939149
145	0x3f06ed3d	0.52705747
146	0x3d8f7b95	0.07005993
147	0xbdc444cf	-0.09583437
148	0xbeb57098	-0.35437465
149	0x3dd59135	0.10428087
150	0x3e33e462	0.1756759
151	0x3e4768f3	0.19473629
152	0xbd9fb547	-0.07798248
153	0x3e176c6e	0.14787456
154	0x3eca5726	0.39519614
155	0xbea1e90e	-0.3162312
156	0xbdb8f8e2	-0.09031846
157	0xbf117da9	-0.5683237
158	0x3ea10436	0.31448525
159	0xbbf27857	-0.0073995995
160	0x3e55020b	0.2080156
161	0x3e4c7a31	0.19968487
162	0x3d88da34	0.06682244
163	0x3eb6c39d	0.35696116
164	0x3ec4d70e	0.38445324
165	0xbd10a6f8	-0.035315484
166	0x3e701224	0.2344442
167	0x3dda3627	0.1065486
168	0x3e4dbbb4	0.20091134
169	0x3df73191	0.12070001
170	0x3dfc66c9	0.12324292
171	0x3e3cbe18	0.1843189
172	0x3e9f2d89	0.31089428
173	0x3ec32716	0.38115758
174	0x3e6f45a5	0.23366411
175	0x3e9036d5	0.28166834
176	0x3d67fe11	0.05663878
177	0x3ea1e99b	0.3162354
178	0xbe226226	-0.15857753
179	0xbd8fb775	-0.070174135
180	0x3d8cd9d4	0.06877485
181	0x3dd273ee	0.10276018
182	0x3ec96f78	0.39342856
183	0x3e9235d2	0.28556687
184	0xbe435926	-0.19076976
185	0x3e9d8941	0.3076878
186	0x3e7ab9aa	0.24484888
187	0x3eb388c4	0.3506528
188	0x3e759d3d	0.23985763
189	0xbd4e1365	-0.050311465
190	0xbebdef9b	-0.37096867
191	0xbe0c5c50	-0.1370709
192	0xbda5e8eb	-0.08101066
193	0xbebf4d2f	-0.37363574
194	0x3e4fd703	0.20296864
195	0xbec80414	-0.3906561
196	0x3dc32ee9	0.09530432
197	0xbe91858f	-0.2842221
198	0xbd181084	-0.037125126
199	0x3e455c1a	0.19273415
200	0xbee32d59	-0.44370535
201	0x3ec16976	0.37775773
202	0xbc1162a7	-0.008873618
203	0x3c094669	0.0083786035
204	0x3ee40e5e	0.4454221
205	0x3ee0b63a	0.43889028
206	0xbe431d4a	-0.19054142
207	0x3ec015ab	0.3751653
208	0x3ecb8fad	0.39758053
209	0x3e07ff3a	0.13280955
210	0x3e49dc9a	0.19713059
211	0xbe957f26	-0.2919857
212	0x3df9f415	0.12204758
213	0xbe2ff6b4	-0.17183954
214	0xbe45ee97	-0.19329296
215	0xbd8c12cf	-0.06839525
216	0x3dc59f56	0.096495315
217	0xbd06d92f	-0.032921966
218	0x3d8cf488	0.06882578
219	0x3eb20dd9	0.3477619
220	0xbebf9934	-0.37421572
221	0xbe83a5c9	-0.25712422
222	0x3e9048c1	0.28180507
223	0x3e7f646f	0.24940656
224	0xbcaa6cbf	-0.020803807
225	0xbf03ff54	-0.51561475
226	0x3e47ab69	0.19498982
227	0x3e685df7	0.22692095
228	0x3e74dfbb	0.23913471
229	0xbe852a7d	-0.26008978
230	0xbefda725	-0.49541584
231	0xbeb172ec	-0.3465799
232	0xbdec2bd9	-0.11531801
233	0xbe7a4356	-0.24439749
234	0x3ea3b0bc	0.31970775
235	0xbee32afc	-0.44368732
236	0x3d11cf84	0.035598293
237	0xbe21203f	-0.15734957
238	0x3c00e277	0.007866493
239	0x3c547b9d	0.012968925
240	0xbe641235	-0.2227257
241	0xbb8658b6	-0.0040999306
242	0xbc2a4ba8	-0.010394014
243	0x3f26ff2f	0.6523313
244	0xbe1fef65	-0.15618666
245	0xbea59aef	-0.32344767
246	0x3ed026eb	0.40654692
247	0x3ee26029	0.4421399
248	0xbebc1369	-0.3673356
249	0x3e8fbc20	0.28073215
250	0x3e3250b5	0.174136
251	0xbe993612	-0.29924065
252	0xbeebe8e7	-0.46076128
253	0xbe98787a	-0.29779416
254	0x3e8fc51a	0.28080064
255	0xbddf18d5	-0.10893408

fc1.bias f4 [128]
0	0xbd9f96b1	-0.07792414
1	0xbda4365b	-0.0801818
2	0xbe9fb247	-0.31190702
3	0x3bdf1125	0.0068074637
4	0xbd9f0193	-0.07763972
5	0xbe13059b	-0.14357607
6	0xbd8a15c4	-0.06742433
7	0xbeb55724	-0.35418046
8	0xbe8141c3	-0.25245485
9	0x3b5428e4	0.0032373006
10	0xbe9d68e0	-0.30744076
11	0xbe083552	-0.1330159
12	0xbe6ba319	-0.23011436
13	0xbea16ec4	-0.3152982
14	0xbc2a0a6a	-0.0103784595
15	0xbd681928	-0.056664616
16	0xbcd54c94	-0.026037492
17	0x3c7067ca	0.014673183
18	0x3c2e1d92	0.010627167
19	0x3ccc701c	0.024955802
20	0xbdad20a6	-0.08453493
21	0x3d1bdcff	0.038052555
22	0xbd984dd0	-0.074367166
23	0x3c269b56	0.010168871
24	0xbe5a104c	-0.2129528
25	0x3ce46f80	0.027885199
26	0xbe08c3b4	-0.13355905
27	0xbea32f56	-0.31872052
28	0xbe22ab99	-0.15885772
29	0xbec0a2fd	-0.3762435
30	0xbe29f34b	-0.16596715
31	0xbe2eda2f	-0.17075418
32	0xbe483997	-0.19553219
33	0xbe632695	-0.22182687
34	0xbd567f5f	-0.052367564
35	0xbeb04e74	-0.34434855
36	0x3d2da8e6	0.042397402
37	0xbd1b8d4e	-0.037976556
38	0xbcde1d9b	-0.027113726
39	0xbdbb5a52	-0.091480866
40	0x3cdf1314	0.027230777
41	0xbe091cca	-0.13389888
42	0xbe06b1e5	-0.13153799
43	0xbe61751e	-0.22017333
44	0xbd3d62a7	-0.04623666
45	0x3c86ccca	0.016455073
46	0xbeb3cded	-0.35118046
47	0xbe9e28a7	-0.3089039
48	0xbcdebbec	-0.027189218
49	0x3c87e7e2	0.016590063
50	0x3c6250d4	0.013813216
51	0xbe0ce386	-0.13758668
52	0xbd54ef2e	-0.051985912
53	0x3c1579e4	0.009123299
54	0x3cad8465	0.021181295
55	0xbea7f651	-0.32805112
56	0xbea5f048	-0.32409883
57	0xbdcc074e	-0.09962331
58	0xbcfd4eec	-0.030921422
59	0xbb94ba40	-0.0045388043
60	0xbde85695	-0.11344639
61	0xbeba55ff	-0.36393735
62	0xbeb691e0	-0.3565817
63	0xbccbd6d6	-0.024882715
64	0xbe90afd9	-0.2825916
65	0xbec17a88	-0.37788796
66	0xbe97fb5d	-0.29683962
67	0xbea99ae6	-0.3312599
68	0xbe0cb058	-0.13739145
69	0xbe7aa807	-0.2447816
70	0xbd397c38	-0.04528448
71	0xbc439c4e	-0.011939121
72	0xbd670d5b	-0.05640922
73	0xbda12d42	-0.0786996
74	0x3dbd8d6b	0.09255489
75	0x3caf64b2	0.02141032
76	0xbe12fb91	-0.14353777
77	0xbea578f6	-0.32318848
78	0xbe8c79f4	-0.27436793
79	0xbe59de1b	-0.21276133
80	0xbd1b2c24	-0.037883893
81	0xbeaf3214	-0.34217894
82	0xbe7c3b7d	-0.24632068
83	0xbca29cdf	-0.019850193
84	0xbee300fe	-0.44336694
85	0xbe24097e	-0.16019246
86	0xbe8d6cfb	-0.27622208
87	0xbecd88a9	-0.40143326
88	0xbe4202d2	-0.18946388
89	0xbe8a0a75	-0.26961103
90	0xbeae788b	-0.34076342
91	0xbe40456e	-0.18776485
92	0xbe1d52a8	-0.15363562
93	0x3d0018ba	0.03127358
94	0xbd126171	-0.03573746
95	0xbe05a522	-0.13051274
96	0xbebd4866	-0.36969298
97	0xbe8924d8	-0.26785922
98	0xbdc735a3	-0.09727027
99	0xbe94f698	-0.29094386
100	0xbea71b39	-0.32637957
101	0xbe09fd68	-0.13475573
102	0x3c3c427c	0.0114904605
103	0xbda88d03	-0.08230021
104	0xbe445830	-0.19174266
105	0xbef2ffce	-0.47460788
106	0x3e01b2ee	0.12665913
107	0x3d807094	0.062714726
108	0x3c1d0f35	0.009586145
109	0xbea779c2	-0.3271008
110	0xbe345beb	-0.17613189
111	0xbd50b742	-0.05095602
112	0xbe2bc42e	-0.16774055
113	0xbd51fc56	-0.051266037
114	0xbcf06076	-0.029342871
115	0xbe0fa9e8	-0.14029658
116	0x3cb2e14a	0.021835942
117	0xbe254738	-0.16140449
118	0xbe2d7479	-0.16938962
119	0xbdef3c02	-0.116813675
120	0xbe647b8d	-0.22312756
121	0xbe0a99a4	-0.13535172
122	0xbeac42ee	-0.33644813
123	0xbe9dd26f	-0.3082461
124	0xbe53667a	-0.2064456
125	0x3c269765	0.010167931
126	0xbebd180d	-0.36932412
127	0xbe8709af	-0.26374575

fc2.weight f4 [128, 128]
0	0xbe956111	-0.29175618
1	0xbd2dc1bb	-0.042421084
2	0xbe763832	-0.24044874
3	0x3db74644	0.08948949
4	0x3e2839f0	0.16428351
5	0x3e904928	0.28180814
6	0xbe8145f3	-0.2524868
7	0xbe07d57d	-0.13265033
8	0x3e198076	0.1499041
9	0xbdc4c196	-0.09607236
10	0x3e012e2c	0.1261527
11	0xbdaf1b36	-0.08550112
12	0x3dcfe465	0.10150985
13	0x3ebf2a53	0.37336978
14	0x3cfe986a	0.031078536
15	0xbded5bc6	-0.1158977
16	0xbd47727f	-0.048693176
17	0x3dc4a930	0.096025825
18	0x3d0573f9	0.032581303
19	0xbb57f047	-0.0032949613
20	0xbc3dc7f9	-0.011583322
21	0xbd9cbd52	-0.076532975
22	0xbde1b0c8	-0.110200465
23	0xbd05b322	-0.032641537
24	0x3e2ac690	0.16677308
25	0xbe269a28	-0.16269743
26	0xbe10f2e5	-0.14155157
27	0x3d235302	0.039874084
28	0xbe31f943	-0.17380242
29	0xbd7197fc	-0.058982834
30	0xbd17e778	-0.03708598
31	0x3e345596	0.17610773
32	0xbe1b7ce3	-0.15184359
33	0xbe8d155a	-0.27555352
34	0xbd04c386	-0.03241303
35	0x3e6d4b99	0.2317337
36	0xbd58996c	-0.05288069
37	0x3d96fa3c	0.07371947
38	0xbbd2b3db	-0.006430132
39	0x3d1a7213	0.037706446
40	0xbe44de85	-0.1922551
41	0x3cc90fbe	0.02454364
42	0xbeb6197b	-0.35566315
43	0xbefa1845	-0.4884664
44	0x3e2ab2ed	0.16669817
45	0x3d907ae5	0.0705469
46	0x3db308ce	0.08741914
47	0x3dd22749	0.10261399
48	0xbec5a4c5	-0.38602272
49	0xbe039436	-0.12849507
50	0xbe7f2b93	-0.24918966
51	0xbd0774ed	-0.033070493
52	0xbc14fd42	-0.0090935845
53	0xbd5ec3d5	-0.05438598
54	0xbe415e20	-0.18883562
55	0x3d078afe	0.033091538
56	0xbd6d72af	-0.0579707
57	0xbcaef794	-0.021358289
58	0xbc38a009	-0.011268624
59	0xbe6aed43	-0.2294207
60	0x3e3b7149	0.18304934
61	0x3e0f4efb	0.13994972
62	0x3d2a4335	0.041568
63	0x3e4e4b88	0.20146
64	0xbedfda7f	-0.43721387
65	0x3d8c8440	0.06861162
66	0xbe66e874	-0.22549611
67	0x3e84d3c8	0.25942826
68	0xbef49c7e	-0.47775644
69	0x3d560fba	0.05226109
70	0x3e803fbf	0.25048634
71	0xbe5c1894	-0.21493751
72	0xbe5fac52	-0.21843079
73	0x3d9254a6	0.07145052
74	0xbdeb1021	-0.11477686
75	0x3c31c950	0.010851219
76	0x3d2e38cb	0.04253463
77	0x3e016a66	0.12638244
78	0xbdeec8ef	-0.11659419
79	0xbd1a742f	-0.037708458
80	0x3d8db43d	0.06919143
81	0x3e792c0a	0.24333206
82	0xbdbfd48e	-0.093667135
83	0xbd6ae9ba	-0.057351805
84	0xbd356044	-0.04428126
85	0x3b1f7037	0.002432836
86	0x3d932ef2	0.071866885
87	0xbdb9b6f7	-0.09068101
88	0x3e3ff272	0.1874483
89	0x3eb323e9	0.34988335
90	0x3d371081	0.044693474
91	0x3e6b79f0	0.22995734
92	0xbe381263	-0.17975764
93	0xbd45b917	-0.04827222
94	0xbe372283	-0.17884259
95	0x3db34b11	0.08754552
96	0xbdc45871	-0.09587181
97	0x3d0f15bd	0.03493284
98	0x3d95d822	0.07316615
99	0xbe43644d	-0.1908123
100	0xbd863bc2	-0.06554367
101	0x3e1d1393	0.15339498
102	0xbda8968d	-0.0823184
103	0xbe5bb5bd	-0.21456046
104	0x3deb0c8a	0.11477001
105	0x3f774dbc	0.9660299
106	0x3b1a24dd	0.0023520507
107	0x3b09004c	0.0020904718
108	0xbdfe99c5	-0.12431673
109	0x3ec83e12	0.39109856
110	0x3e085616	0.13314089
111	0x3ddbc875	0.107315935
112	0x3df2c292	0.118535176
113	0xbd9a815e	-0.07544206
114	0xbd174eed	-0.036940504
115	0x3dad514a	0.0846277
116	0x3db19265	0.08670501
117	0xbe474e1c	-0.1946339
118	0x3d24f9a2	0.04027713
119	0x3d327034	0.043564036
120	0xbe073171	-0.13202454
121	0xbf14f1e4	-0.58181596
122	0x3dcb1ae2	0.09917237
123	0x3e11c8a6	0.14236698
124	0x3d5f0c93	0.05445535
125	0xbd956bf9	-0.07295985
126	0x3e00d66e	0.12581798
127	0x3e2644ee	0.16237232
128	0xbdab4ce6	-0.083642766
129	0xbee6bffc	-0.45068347
130	0xbd3d12e3	-0.04616059
131	0xbc805de9	-0.01566978
132	0x3cf014fa	0.029306877
133	0xbe169f01	-0.14709093
134	0xbe2fbbb0	-0.17161441
135	0x3de17149	0.110079356
136	0x3b4a150b	0.0030835296
137	0xbdafb73c	-0.08579871
138	0xbe475ed0	-0.19469762
139	0x3d57af17	0.052657213
140	0xbb9160aa	-0.004436572
141	0x3e07b4c8	0.13252556
142	0x3dbd4ea2	0.09243514
143	0xbf19a090	-0.60010624
144	0xbdb6e080	-0.08929539
145	0xbdb76e3a	-0.08956571
146	0xbd7b0cc1	-0.06129146
147	0xbdab62e5	-0.08368472
148	0x3b16ca84	0.0023008892
149	0x3c3fab78	0.011698596
150	0xbdd76d9d	-0.10518954
151	0x3cbdfa72	0.02319071
152	0x3d33d368	0.043902785
153	0x3d27ba65	0.040949244
154	0xbb6c9f8d	-0.0036105842
155	0xbe4a75db	-0.19771521
156	0x3d020299	0.03174076
157	0x3e61c067	0.22046052
158	0xbe97e795	-0.2966887
159	0xbf4c63b2	-0.7983962
160	0xbdf33968	-0.11876184
161	0x3d9769d2	0.073932305
162	0xbd35cbec	-0.04438393
163	0xbeffc6df	-0.49956414
164	0x3c42422d	0.011856598
165	0xbd9d3940	-0.07676935
166	0xbdd7bf0e	-0.10534488
167	0x3d8e62a3	0.06952407
168	0xbcca22f2	-0.024674866
169	0xbe8ae9d1	-0.27131513
170	0xbd567c11	-0.052364413
171	0x3e731a80	0.23740578
172	0x3c8c7554	0.01714579
173	0xbd3bc1ee	-0.045839243
174	0x3e3f7f9a	0.1870102
175	0xbe3c6351	-0.18397261
176	0xbda44f75	-0.08022968
177	0xbd00872b	-0.031378906
178	0x3baa8495	0.0052037933
179	0xbe7fbfd7	-0.24975525
180	0xbdf55191	-0.11978448
181	0x3c8ecdf5	0.017432192
182	0xbdd89cf4	-0.105768114
183	0xbe5e1788	-0.21688664
184	0x3e25b7d0	0.161834
185	0xbceef820	-0.02917105
186	0xbd88d61b	-0.066814624
187	0x3b1e3c34	0.002414477
188	0x3dc8dc2d	0.0980762
189	0xbde362e7	-0.111028485
190	0x3ddb7ff5	0.10717765
191	0xbd991aa8	-0.074757874
192	0xbf47bce9	-0.7802263
193	0x3da697ff	0.0813446
194	0xbdaeb5ea	-0.08530791
195	0xbe3f272d	-0.18667288
196	0xbea59ce4	-0.3234626
197	0x3deb1402	0.114784256
198	0xbbfd3205	-0.00772691
199	0x3d3e7ff1	0.046508733
200	0xbdbd3217	-0.092380695
201	0xbdbfb95b	-0.093615256
202	0x3bf50a36	0.007478024
203	0xbc9a30d6	-0.018822115
204	0xbf3a2890	-0.72718143
205	0xbf2ac0bb	-0.66700333
206	0xbf6fe5ff	-0.9371032
207	0x3d064fd2	0.032790966
208	0xbbab8ec0	-0.005235523
209	0xbe286c43	-0.16447549
210	0xbe6c7cbe	-0.2309446
211	0xbdbd68ee	-0.092485294
212	0xbf065feb	-0.5249011
213	0xbf3cfba0	-0.7382145
214	0xbf30602f	-0.68896765
215	0xbea65a78	-0.32490897
216	0xbdc0c2be	-0.09412144
217	0x3dc81e16	0.097713634
218	0x3e46a0b2	0.19397238
219	0xbe767d71	-0.2407129
220	0x3d4e8f3f	0.05042958
221	0xbd756e31	-0.05991954
222	0xbdeb869f	-0.11500286
223	0xbdad0cc1	-0.08449698
224	0x3daee181	0.08539105
225	0x3dfaffba	0.12255807
226	0xbd9aa98b	-0.07551869
227	0xbda50832	-0.08058204
228	0x3e21a18f	0.15784286
229	0x3e2bf44d	0.16792412
230	0xbd26789e	-0.040642373
231	0xbe6ea7d1	-0.23306204
232	0x3ddf08f9	0.10890383
233	0xbe18b927	-0.1491438
234	0x3c3a0702	0.01135421
235	0xbd4816d2	-0.04884989
236	0xbcc5347f	-0.024072884
237	0x3ed08219	0.40724257
238	0xbf7b2bbe	-0.9811362
239	0xbe71cd2c	-0.23613423
240	0xbef914f8	-0.4864881
241	0xbe34b643	-0.17647652
242	0xbd132d41	-0.03593183
243	0x3d71cd03	0.059033405
244	0xbc0cc533	-0.008591938
245	0x3d5cd9ca	0.053918637
246	0x3e35ac89	0.17741598
247	0xbe8ab25e	-0.27089208
248	0xbf6b5559	-0.91927105
249	0xbca3ee11	-0.02001098
250	0xbf12b091	-0.5730067
251	0xbe1b041c	-0.15138286
252	0x3d852bbc	0.06502482
253	0x3d82571e	0.063642725
254	0xbefc276b	-0.49248824
255	0xbf8ed1cc	-1.1157775

fc2.bias f4 [128]
0	0xbe928e17	-0.2862403
1	0x3e163330	0.14667964
2	0xbe9fd04d	-0.31213608
3	0x3d90392b	0.07042154
4	0x3ceb4865	0.028721044
5	0x3d806341	0.06268931
6	0x3de0c78d	0.10975561
7	0xbd0eacd0	-0.034832776
8	0x3d8bcad0	0.06825793
9	0x3da8bab2	0.08238734
10	0xbd41da6a	-0.047327437
11	0xbc0c3982	-0.008558633
12	0xbe4be877	-0.19912897
13	0x3d5fd1cd	0.05464344
14	0xbe2048f1	-0.15652825
15	0x3d040f6f	0.03224128
16	0xbd89ceda	-0.06728907
17	0xbe348ae8	-0.17631114
18	0x3c39fbce	0.011351539
19	0xbdb03e7f	-0.0860567
20	0x3de55f18	0.11199778
21	0xbe5f9adc	-0.21836418
22	0xbcaa6bf5	-0.020803431
23	0xbd33d623	-0.04390539
24	0xbdd108b9	-0.10206742
25	0xbd8ce6d8	-0.068799675
26	0x3ddf2d22	0.1089728
27	0x3d01002f	0.031494316
28	0x3cb9b776	0.022670489
29	0xbe51c04f	-0.20483516
30	0x3ca3719b	0.019951632
31	0x3c7b25d1	0.01532884
32	0xbe2626fd	-0.1622581
33	0x3de75922	0.112962976
34	0xbcdb4f72	-0.02677128
35	0xbd97d795	-0.07414166
36	0x3bc3514f	0.0059606205
37	0xbc91b697	-0.017787261
38	0xbe1a6ab2	-0.15079764
39	0x3d44626c	0.047945425
40	0x3ca55816	0.020183604
41	0xbcc82a76	-0.02443431
42	0xbe5b7211	-0.21430232
43	0x3c3b9b04	0.011450533
44	0x3d6671e3	0.056260955
45	0x3d1d4bb0	0.03840226
46	0x3cde2b84	0.02712036
47	0x3cfc7807	0.030818952
48	0x3dab7113	0.083711766
49	0x3de2284b	0.110428415
50	0x3cf04442	0.029329423
51	0xbd834b57	-0.06410854
52	0xbd6caf32	-0.057784267
53	0xbdde01c3	-0.1084018
54	0x3e258522	0.16164067
55	0x3bae40eb	0.0053177974
56	0x3e06a3d1	0.13148428
57	0xbd12b6b1	-0.03581876
58	0xbe102e07	-0.14080058
59	0xbe11f59e	-0.14253852
60	0x3d195d7f	0.03744268
61	0x3d3767b8	0.04477665
62	0x3d005a11	0.031335894
63	0x3ddba2c8	0.107244074
64	0xbe555f1e	-0.20837066
65	0xbe860533	-0.26175842
66	0xbe075cde	-0.1321902
67	0x3cec4a2f	0.028843967
68	0x3e02fff8	0.12792957
69	0x3e789685	0.24276169
70	0x3dea2dbf	0.114345066
71	0xbe951b53	-0.2912241
72	0x3de9cf7e	0.11416529
73	0xbd4e609d	-0.050385106
74	0xbe42c9e4	-0.19022328
75	0xbda6899d	-0.081317164
76	0x3d101b19	0.035182092
77	0x3db847bc	0.08998057
78	0xbce051cd	-0.027382756
79	0xbe2a77c5	-0.16647251
80	0x3d17b0d3	0.037033867
81	0xbdf70cf5	-0.12063018
82	0xbde6406a	-0.11242755
83	0x3dd9f9ce	0.106433496
84	0xbd3b8db8	-0.04578945
85	0xbdd749e4	-0.105121404
86	0x3d6157d0	0.055015385
87	0xbcc468ff	-0.023975847
88	0x3c8f31f7	0.01747988
89	0xbec7a708	-0.38994622
90	0x3d089ab5	0.033350665
91	0x3c76cb59	0.01506313
92	0xbb9786d1	-0.0046242257
93	0xbb6b794e	-0.0035930458
94	0xbd5de3c6	-0.0541723
95	0xbda7c013	-0.08190932
96	0xbd666f51	-0.056258503
97	0xbe12eaae	-0.14347336
98	0xbca27749	-0.01983227
99	0xbdead11a	-0.11465664
100	0xbe332b88	-0.17497075
101	0x3de58fc9	0.112090655
102	0xbd5dd0a3	-0.05415405
103	0xbcd5056c	-0.026003562
104	0xbd854bcb	-0.06508597
105	0x3cb019ad	0.021496618
106	0x3d319398	0.043353647
107	0x3d657430	0.05601901
108	0x3e129c74	0.14317495
109	0xbcebea94	-0.028798379
110	0x3d5b2508	0.053502113
111	0xbdd0d973	-0.10197725
112	0xbdad26bb	-0.08454653
113	0xbdca8d16	-0.09890191
114	0xbd3b91c4	-0.04579331
115	0x3d0143a1	0.031558637
116	0x3cf9f49a	0.030512143
117	0xbd924b65	-0.071432866
118	0xbd4d6066	-0.05014076
119	0xbdf5e6b0	-0.12006891
120	0xbdc900a3	-0.098145746
121	0xbd4e6621	-0.050390366
122	0x3c75a071	0.0149918655
123	0xbe57c79c	-0.21072239
124	0x3c96ad5b	0.01839321
125	0x3d8b1d46	0.06792693
126	0x3dc39191	0.09549249
127	0xbe9ef28b	-0.3104442

fc3.weight f4 [64, 128]
0	0xbf0f3f9b	-0.5595643
1	0xbd91190f	-0.07084858
2	0xbf086fbb	-0.5329549
3	0x3d128c39	0.035778258
4	0x3ea24c77	0.31698963
5	0xbed98fa8	-0.42492414
6	0x3e17f65f	0.14840077
7	0xbf5edf9f	-0.8705997
8	0x3d8d99f0	0.06914127
9	0xbe14d410	-0.1453402
10	0x3e1ea975	0.1549433
11	0x3d05ea7e	0.032694332
12	0xbe8d13e4	-0.27554238
13	0x3ca1dc9d	0.019758517
14	0xbf1e8e58	-0.6193595
15	0x3dfdeb1d	0.1239836
16	0xbe7b01dc	-0.24512428
17	0xbd2f20a0	-0.042755723
18	0x3ebcaeb5	0.3685204
19	0xbbc3e7a5	-0.005978542
20	0x3de119e7	0.109912686
21	0xbea589b8	-0.32331634
22	0xbe22f3c7	-0.15913306
23	0x3e2e52b2	0.17023733
24	0xbcc483bf	-0.023988603
25	0xbd6c6fd9	-0.057723854
26	0x3e482f01	0.1954918
27	0xbe93a80a	-0.2883914
28	0xbdc2ca72	-0.0951127
29	0xbe871dd4	-0.26389945
30	0xbd812824	-0.06306484
31	0xbeccb22d	-0.39979687
32	0xbe5123d1	-0.20423819
33	0x3db0fe73	0.08642282
34	0x3d8ac417	0.067756824
35	0x3c7287ca	0.014802882
36	0xbeb40150	-0.3515725
37	0xbd856758	-0.06513852
38	0xbd29a4d0	-0.041416943
39	0x3e85220e	0.26002544
40	0xbdd72399	-0.105048366
41	0xbd3b91c0	-0.045793295
42	0x3d7a9deb	0.06118576
43	0x3d355c9d	0.044277776
44	0xbe434551	-0.19069411
45	0xbe1b57e4	-0.15170246
46	0xbe0300da	-0.12793294
47	0x3de9ae7d	0.11410234
48	0x3e0968f2	0.1341894
49	0x3d9608f6	0.07325928
50	0x3dd78511	0.10523427
51	0x3de11443	0.10990193
52	0x3e31308a	0.17303672
53	0xbe8292fb	-0.25502762
54	0x3e4547fb	0.1926574
55	0xbe8ace32	-0.2711044
56	0xbe25708f	-0.16156219
57	0xbeee4a68	-0.46541142
58	0x3e92fd07	0.2870867
59	0xbcfec503	-0.031099802
60	0x3e1e337c	0.15449327
61	0x3e07fd68	0.1328026
62	0x3e4cb756	0.19991812
63	0xbe3e46db	-0.18581717
64	0xbe91b3bd	-0.28457442
65	0xbe91c412	-0.28469902
66	0xbe0403bf	-0.12892054
67	0x3d26de7e	0.04073953
68	0xbcd032e7	-0.025414897
69	0x3ee149f3	0.4400173
70	0x3eedf06f	0.464725
71	0xbea2dc78	-0.3180883
72	0xbe254c7b	-0.16142456
73	0xbd1ec598	-0.03876266
74	0xbe2e8575	-0.17043097
75	0xbebe0c43	-0.3711873
76	0x3d879dee	0.066219196
77	0xbd1cae51	-0.03825218
78	0xbe02f1ff	-0.12787627
79	0x3c08de86	0.008353835
80	0xbaebd9ca	-0.0017993983
81	0x3c4b08b1	0.012392209
82	0xbe82a4c7	-0.2551634
83	0x3e5d30bb	0.2160062
84	0xbe5de002	-0.21667483
85	0xbdc17c1c	-0.094475
86	0x3e8228bf	0.25421712
87	0x3dc222e9	0.09479315
88	0x3e1696dd	0.14705987
89	0xbeb5ea6c	-0.35530412
90	0xbd126daf	-0.035749134
91	0xbdea2076	-0.11431973
92	0x3df916f4	0.12162581
93	0x3bef9c39	0.0073123244
94	0xbe949c54	-0.2902552
95	0xbe8166a0	-0.2527361
96	0xbea31e5b	-0.31859097
97	0xbd36834f	-0.04455882
98	0x3ecad7d2	0.39617783
99	0xbe452cf3	-0.19255428
100	0xbed42599	-0.41434935
101	0xbe392da3	-0.18083815
102	0xbec2cd20	-0.38047123
103	0x3d98de29	0.07464249
104	0x3bf582f8	0.0074924193
105	0x3dd71529	0.10502083
106	0x3e98db39	0.29854754
107	0xbecc969c	-0.39958656
108	0x3ed4a0a7	0.41528818
109	0x3d7b57cc	0.061363026
110	0xbeb3747b	-0.35049805
111	0xbefe4e97	-0.49669334
112	0xbd900158	-0.07031506
113	0xbeadbe7c	-0.3393439
114	0x3dd01747	0.1016069
115	0x3d9e1580	0.077189445
116	0xbe1882eb	-0.14893691
117	0xbeaca68e	-0.3372082
118	0xbe63e8c4	-0.22256762
119	0x3e4975be	0.19673821
120	0xbe825fa9	-0.25463608
121	0xbea935d7	-0.3304889
122	0xbdd54a71	-0.10414589
123	0xbe807e1c	-0.25096214
124	0xbe81725c	-0.25282562
125	0x3e583bb6	0.21116528
126	0x3e502905	0.20328148
127	0xbf07571b	-0.5286729
128	0xbf04e255	-0.51907855
129	0xbf4e8451	-0.8067065
130	0x3e9395a6	0.2882511
131	0xbe462f7d	-0.19354053
132	0x3e882857	0.26593277
133	0xbf92be8d	-1.1464401
134	0x3e887fd7	0.26660034
135	0xbe0e4521	-0.13893558
136	0xbf7245da	-0.94637835
137	0xbf6cf323	-0.925585
138	0x3de7327a	0.112889245
139	0x3e4b0828	0.1982733
140	0x3ddadc05	0.10686497
141	0x3e6f335f	0.2335944
142	0xbeb7cf2b	-0.35900244
143	0x3e423aab	0.18967693
144	0xbf4af741	-0.7928353
145	0x3c313c92	0.010817664
146	0xbad4ab28	-0.0016225325
147	0x3d8a0e81	0.06741048
148	0x3e0e7001	0.13909914
149	0x3e9ac289	0.30226544
150	0x3e74eec9	0.23919214
151	0x3e7333c9	0.23750223
152	0xbd9e19b2	-0.07719745
153	0x3d428303	0.047488224
154	0x3e29ff79	0.16601361
155	0xbe88ffc4	-0.26757634
156	0x3e7a8786	0.2446576
157	0xbed3d07a	-0.41369992
158	0x3e7b9dff	0.2457199
159	0xbf1d371a	-0.61412203
160	0x3e809eb1	0.25121072
161	0xbe899cce	-0.26877445
162	0xbe7cc5e3	-0.24684863
163	0xbcad42ea	-0.021150071
164	0xbf144133	-0.57911986
165	0x3e43cd1d	0.19121213
166	0x3e0a226c	0.13489693
167	0xbf0b2673	-0.54355544
168	0x3dfd1d1a	0.12359066
169	0x3e0d393a	0.13791361
170	0x3dc817e8	0.09770185
171	0x3ea19b63	0.31563863
172	0x3e6c02e0	0.23047972
173	0xbe812b2f	-0.2522826
174	0xbea346aa	-0.3188985
175	0x3e887331	0.26650384
176	0x3ea7bc22	0.3276072
177	0x3e93e0f0	0.2888255
178	0x3d6f5cc6	0.058438085
179	0x3ea19f4f	0.31566855
180	0x3d257f47	0.040404584
181	0xbf27e4b4	-0.6558335
182	0x3df54601	0.11976243
183	0xbe796254	-0.24353915
184	0xbf1d6349	-0.6147962
185	0xbf0a153d	-0.5393866
186	0x3d26205e	0.04055821
187	0x3e41afd8	0.18914735
188	0x3db4b24d	0.08823071
189	0x3e7ffb3c	0.24998182
190	0x3e17e653	0.14833955
191	0xbe87a6fe	-0.26494592
192	0xbf168dea	-0.58810294
193	0xbf087a67	-0.5331177
194	0x3d99c2e0	0.075078726
195	0x3e9c8bed	0.30575505
196	0x3e9764df	0.29569146
197	0xbb3b4bbe	-0.0028579081
198	0xbf0e8e43	-0.55685824
199	0xbed8c6d5	-0.42339197
200	0x3e852dfd	0.2601165
201	0x3e0eb586	0.13936433
202	0xbd1fe93d	-0.039040793
203	0x3ed390ec	0.41321504
204	0x3e83a98d	0.25715294
205	0xbf9ddaa9	-1.2332355
206	0xbf40675a	-0.751577
207	0x3dde007b	0.108399354
208	0x3e912358	0.28347278
209	0x3de7a3ad	0.113105156
210	0xbf00342b	-0.500796
211	0xbf53faf3	-0.82804793
212	0x3e5355d1	0.20638205
213	0x3d9c2bc6	0.076255366
214	0x3e499f9c	0.19689792
215	0x3dd6fc9e	0.10497402
216	0x3ea52a1f	0.32258698
217	0xbf0c041e	-0.5469378
218	0xbf11b492	-0.56916153
219	0xbf55e1be	-0.8354758
220	0x3d6e5f91	0.058196608
221	0x3ea13a59	0.31489828
222	0x3e4af795	0.19821008
223	0xbeff0f63	-0.49816427
224	0xbe6609f5	-0.22464736
225	0xbebaa52e	-0.36454147
226	0xbe24da06	-0.16098794
227	0x3dd43b85	0.10362915
228	0xbf20ef42	-0.6286508
229	0x3cb15172	0.021645281
230	0xbf5e6dc2	-0.8688623
231	0x3dfe9741	0.12431193
232	0x3ea33219	0.3187416
233	0xbe939feb	-0.28832945
234	0xbe92925c	-0.28627288
235	0xbf099edf	-0.53758043
236	0xbf5f8f85	-0.8732837
237	0x3e4a1efa	0.19738379
238	0x3e60f9c1	0.21970274
239	0xbece0cc0	-0.40244102
240	0xbe402fe1	-0.18768264
241	0xbed3dcda	-0.41379434
242	0x3e5180e5	0.20459326
243	0x3e99efd6	0.30065793
244	0xbe76ed4d	-0.2411396
245	0xbeb02a20	-0.3440714
246	0xbe57e447	-0.21083175
247	0x3ebaf7cd	0.36517182
248	0xbeac9e63	-0.3371459
249	0xbd967d5c	-0.07348129
250	0x3ea4d143	0.32190904
251	0xbef62b85	-0.48080078
252	0x3e96c924	0.29450333
253	0x3e912056	0.28344983
254	0xbea2dfe5	-0.31811443
255	0x3e7ea6f8	0.24868381

fc3.bias f4 [64]
0	0x3cfd8a4e	0.030949738
1	0x3e6f746c	0.23384255
2	0x3e0dbb98	0.13841093
3	0x3ee2e2af	0.4431357
4	0x3e51db07	0.20493709
5	0x3e63e4aa	0.22255197
6	0x3b964d35	0.0045868405
7	0xbd80f158	-0.06296033
8	0x3ee143e4	0.4399711
9	0x3e04674a	0.12930027
10	0x3ea0853e	0.31351656
11	0xbddb27e5	-0.10700969
12	0x3ea34ac2	0.31892973
13	0x3e90026b	0.28126845
14	0x3ef0449f	0.46927354
15	0x3e88b1e4	0.2669822
16	0xbe327a1c	-0.17429394
17	0x3e9aaca6	0.30209845
18	0x3e954d1c	0.29160392
19	0x3e8fca99	0.28084257
20	0x3d8b2ac5	0.06795267
21	0x3e1c64c6	0.15272817
22	0xbe95ea10	-0.29280138
23	0x3e41adee	0.18914005
24	0x3eb2a070	0.3488803
25	0x3e81213e	0.25220674
26	0xbe295bfc	-0.16538996
27	0x3db014fb	0.08597752
28	0x3e6978e7	0.22800027
29	0x3e6f9389	0.23396124
30	0xbeb55c52	-0.35421997
31	0xbe128883	-0.14309888
32	0x3e1a74a7	0.15083562
33	0x3d9e2793	0.07722392
34	0x3eb2c45c	0.34915435
35	0x3e1c3c6e	0.15257427
36	0x3eddda8f	0.4333081
37	0xbe4867eb	-0.19570892
38	0x3e827518	0.2547996
39	0x3e4d4d38	0.20048988
40	0x3e937f82	0.28808218
41	0x3e3d94be	0.18513772
42	0x3e5c21b0	0.21497226
43	0xbe4a734e	-0.19770548
44	0x3dbe6115	0.09295861
45	0x3eb639e0	0.3559103
46	0x3e87d24b	0.26527628
47	0x3eca5833	0.39520416
48	0x3e043629	0.12911285
49	0x3eb0ddb7	0.34544155
50	0x3e80bdc8	0.25144792
51	0xbe2fb271	-0.17157914
52	0x3ebfbc6f	0.3744845
53	0x3eb88d05	0.3604509
54	0x3ee01f24	0.43773758
55	0x3e735d0b	0.23765962
56	0x3c66d135	0.014087965
57	0x3e41ea90	0.18937135
58	0x3e810e18	0.25206065
59	0x3e8a1f9d	0.26977244
60	0x3e5cc54f	0.21559642
61	0x3e4a97a2	0.19784406
62	0x3ea57baf	0.32320926
63	0x3e6cbbf3	0.23118572

fc4.weight f4 [3, 64]
0	0xbf0488e0	-0.51771355
1	0xbf2d6d4a	-0.67744887
2	0x3e76ba17	0.24094425
3	0x3f735d64	0.9506438
4	0xbebe946e	-0.37222618
5	0xbf645ee6	-0.89207304
6	0x3f5f6e88	0.8727803
7	0xbef1e85a	-0.47247583
8	0xbeaf4a5a	-0.34236413
9	0xbef99876	-0.4874913
10	0xbf2fe31b	-0.6870591
11	0x3f481421	0.78155714
12	0x3f005671	0.501319
13	0xbf42a626	-0.7603477
14	0xbedaa454	-0.42703497
15	0xbf1dc4ab	-0.61628217
16	0x3f10d746	0.5657848
17	0x3f048502	0.51765454
18	0x3f097426	0.53692853
19	0xbf41d811	-0.75720316
20	0xbea5b318	-0.323632
21	0xbf291174	-0.66042256
22	0x3fb85da6	1.4403579
23	0xbdf194b5	-0.11795942
24	0xbeb7de63	-0.35911855
25	0x3f1d009a	0.6132904
26	0xbfb32ea1	-1.3998605
27	0x3f2a938a	0.66631377
28	0xbf43a426	-0.76422346
29	0x3f200949	0.6251417
30	0x3fc93677	1.5719746
31	0x3f33f931	0.7030211
32	0xbeb182a3	-0.3466998
33	0x3ec0e75a	0.37676507
34	0x3f3a676d	0.72814065
35	0x3dfc2377	0.12311452
36	0x3f6854ca	0.9075438
37	0x3f16b24e	0.5886582
38	0xbf153d7e	-0.58296955
39	0x3e4d8642	0.20070747
40	0x3f31fc33	0.6952545
41	0xbe33784b	-0.17526357
42	0xbe83b181	-0.25721362
43	0x3ef4d266	0.4781677
44	0xbf0b6eb0	-0.5446577
45	0xbe920f86	-0.28527468
46	0xbb4cbcc6	-0.0031240447
47	0xbea5fa5b	-0.3241757
48	0xbf1c7a93	-0.61124533
49	0x3f49c5b2	0.78817284
50	0x3ef9a02b	0.4875501
51	0x3b14f394	0.0022728192
52	0xbe4d2a74	-0.20035726
53	0xbeb444c9	-0.3520873
54	0xbec7e6e6	-0.3904335
55	0x3e8e4e90	0.27794313
56	0xbef77713	-0.48333034
57	0xbf1e4376	-0.6182169
58	0x3e654ee9	0.22393383
59	0xbf280d92	-0.65645707
60	0xbeafa2e2	-0.34303957
61	0xbf18e1c7	-0.5971951
62	0x3f0370bd	0.513439
63	0xbf302084	-0.68799615
64	0xbf41b2aa	-0.75663245
65	0xbf10f17c	-0.56618476
66	0xbf196477	-0.5991892
67	0x3f875542	1.0572894
68	0xbf17ef6b	-0.593497
69	0xbf787da3	-0.97066706
70	0x3ed259d7	0.41084167
71	0xbd520b1b	-0.051280122
72	0xbead024f	-0.33790824
73	0xbf3a1df8	-0.7270198
74	0xbf61f055	-0.8825734
75	0x3f25e8bf	0.6480827
76	0x3f137029	0.5759302
77	0xbf612599	-0.87947994
78	0xbebf3485	-0.37344757
79	0xbf0fcd66	-0.5617279
80	0x3eca0da2	0.39463526
81	0x3f0ed972	0.55800545
82	0x3ef62b7d	0.48080054
83	0xbf20c430	-0.6279936
84	0xbf1bd564	-0.60872483
85	0xbf684cdf	-0.90742296
86	0x3fba48b5	1.4553438
87	0x3dc7d663	0.09757688
88	0xbee82f6b	-0.45348677
89	0x3ef4cda3	0.47813138
90	0xbfd90dbc	-1.6957316
91	0xbca28ae2	-0.019841615
92	0xbf0a6d05	-0.540726
93	0x3eec9b03	0.46212015
94	0x3fc5fbac	1.5467429
95	0x3f329103	0.6975252
96	0x3e70229c	0.23450702
97	0xbed9e63c	-0.42558467
98	0x3f311141	0.6916695
99	0x3ec18c35	0.37802282
100	0x3fb1938c	1.3873153
101	0x3f162c85	0.5866168
102	0xbeb9f94b	-0.36323008
103	0x3ef45007	0.47717306
104	0x3f06011d	0.5234545
105	0xbebf1e90	-0.37328005
106	0xbf17649f	-0.5913791
107	0x3f1cf610	0.6131296
108	0xbf2c2f9c	-0.67260146
109	0xbe58e65f	-0.2118163
110	0x3f06a562	0.52596104
111	0xbecce104	-0.40015423
112	0xbee82b95	-0.4534575
113	0x3ef21b80	0.47286606
114	0x3ecb31b6	0.39686364
115	0xbd6e27b3	-0.05814333
116	0xbec50400	-0.38479614
117	0xbed698c2	-0.4191342
118	0xbecaed23	-0.39634046
119	0x3f14cb23	0.5812246
120	0xbf2f2499	-0.6841522
121	0xbd8ef7a3	-0.06980827
122	0xbe906036	-0.28198403
123	0xbeb229c3	-0.34797487
124	0xbee68185	-0.4502069
125	0xbeba14c6	-0.36343974
126	0x3f3d27ad	0.73888665
127	0xbede2772	-0.4338947
128	0xbde88695	-0.113537945
129	0xbef79b46	-0.48360652
130	0x3e5bc03c	0.2146005
131	0x3f70a45a	0.9400078
132	0xbed2caeb	-0.4117044
133	0xbe8bf225	-0.2733318
134	0x3ecb12d8	0.39662814
135	0x3c8093ee	0.015695538
136	0xbe7754c6	-0.24153432
137	0xbea7958e	-0.3273129
138	0xbf2edd95	-0.6830686
139	0x3f41b703	0.7566988
140	0x3edb3951	0.42817166
141	0xbea1792f	-0.31537768
142	0xbed2d308	-0.4117663
143	0xbf2480e8	-0.64259195
144	0x3eb233fe	0.34805292
145	0x3f11faf0	0.57023525
146	0x3ec1d7ba	0.378599
147	0xbf0c2a57	-0.54752105
148	0x3e96ee78	0.29478812
149	0xbebe9214	-0.37220824
150	0x3f8fed35	1.1244265
151	0xbf56f92c	-0.83973956
152	0xbee5e36c	-0.44900072
153	0x3f4b6fd5	0.7946752
154	0xbf9ffd36	-1.2499149
155	0x3f3597fd	0.7093504
156	0xbed692ae	-0.41908783
157	0x3f62a33c	0.88530326
158	0x3fb9170d	1.446016
159	0x3f0a0d2d	0.53926355
160	0xbf2bc6a7	-0.67099994
161	0x3f3b805d	0.7324274
162	0x3f3f4518	0.74714804
163	0xbe19dea7	-0.15026341
164	0x3f5adc2e	0.8549222
165	0x3f194397	0.5986876
166	0xbf22cdb7	-0.63595146
167	0x3e7154bc	0.2356748
168	0xbe8cef63	-0.27526388
169	0xbe888ef1	-0.26671556
170	0xbeafde29	-0.34349182
171	0x3f00090b	0.500138
172	0xbe9ac49d	-0.3022813
173	0xbf030c53	-0.5119068
174	0xbea4210b	-0.3205646
175	0xbe1be5d1	-0.15224387
176	0xbed3a08d	-0.41333428
177	0x3f394dfc	0.7238462
178	0x3f2a0925	0.66420203
179	0xba1282c5	-0.0005588944
180	0xbebfe6ab	-0.37480673
181	0xbe9f3c10	-0.31100512
182	0xbe99b39d	-0.30019847
183	0x3ef3fd06	0.4765398
184	0xbe844df9	-0.25840738
185	0xbf261b41	-0.64885336
186	0xbeb2cd65	-0.3492233
187	0xbeba711b	-0.36414418
188	0xbf3d2bc5	-0.7389491
189	0xbeb88fbd	-0.36047164
190	0x3f0495e2	0.51791203
191	0xbf321f10	-0.6957865

fc4.bias f4 [3]
0	0xbd69c26f	-0.057070192
1	0xbe133bdc	-0.14378303
2	0xbe8011d6	-0.25013608
