trained_models/GOOGL.csv.pth (torch, 22039 bytes, 6 tensors)

fc1.weight f4 [64, 10]
00000000: 693e 81be fb79 18bf 7a8e 85bb 048f 053e
00000010: 9eb2 26be 920e 113e b17a 8c3e 74bb fe3d
00000020: ab00 453e d254 a9bd bff6 8b3d 734a 663d
00000030: 2bfd 1e3e c63f e33c 52e2 b4be 6290 063f
00000040: 509a b73d 2549 86be b49e 0fbe 4c49 6d3e
00000050: 7137 5abe 65da 99be ece7 313e 6695 c1be
00000060: 109a 68be 1788 f3be 1005 ec3d 2b8a 773e
00000070: d05d 0b3a 46cf 2cbf 2188 d8be c9ce d43c
00000080: 8406 c63d c079 04bd 2c0d 713e cdba eb3e
00000090: 8aa2 b8be 3df4 e93d 31b1 b1bd 6b8d 58be
000000a0: b01a 9dbe c1f1 65be 2cd4 e9be a6d3 023f
000000b0: b2ce ea3e c570 d0bd a30e 71bd f7ac f13e
000000c0: e3a1 d43e 127b 80bc b639 5c3e 1a70 8cbc
000000d0: 8ebe dcbe 9679 05be a782 c3be 8056 afbc
000000e0: a6ab 63bd 4201 49be 38e2 34bc d82d e93e
000000f0: 428e 08be b953 57be c276 8bbe 6190 973d
00000100: 2fff 1e3f 1a7f b7be 7684 7bbd 964f 7ebe
00000110: 08c0 1d3f 28cc 803e d257 1fbd 13e7 8d3e
00000120: a5c3 1abe 6ed3 2fbe 046f 52be 91f1 9abe
00000130: 6f0a 193e 031d 453e 2cc4 493e aefc d13d
00000140: e305 233f c94b 043b 7717 4a3f c609 813d
00000150: 6199 bfbe 2fb5 b6be 8660 a9be 938d 86be
00000160: bec2 163e 5e10 6ebe 76cb 2a3f 474e 113e
00000170: 726d ca3e 9aad a2bd 3f04 e8be 6517 97be
00000180: a6e2 093e d6c8 ed3d 1eb0 2ebe bfc1 c03d
00000190: 0c11 58be f423 b9be eff3 2e3c 68be 1b3e
000001a0: 45fa a43d bba8 ecbe afce ee3e c0c3 34be
000001b0: 4cee 17bf 09a8 14bf 62c5 54be 9956 683e
000001c0: 55ca 83be c75a 9fbd e6e3 13bf 2417 f2bc
000001d0: 0fcc 51bd a969 31be 9c6f f5be f879 613e
000001e0: f9b0 3f3e 86c1 00bf 1215 1ebe c405 d63c
000001f0: 1afd 13bf 0b0f 9c3d 8346 debc 8c74 babe
00000200: 8475 f0be d834 e83e 4ec6 19be 2aa0 d73e
00000210: f3ad 223e 6c51 17be c982 81be de4b 633e
00000220: 23f9 74bd 47cf 61be 3940 0dbf e33f 993e
00000230: 3f2d db3e 01f8 e6bd 3ecf 1a3e 1c47 75bf
00000240: 560f 093f 9fa7 a63e 5897 04be 3e24 77be
00000250: e6e4 e33e 9613 a9bd 216b 63be b8b7 763e
00000260: 5eff f33d ba6e 89bb 206b 18be 6fcd 9cbd
00000270: 1802 cb3e aaa1 56be c39d 8abd 7f04 d73e
00000280: a12b a4bd a0b9 743e e41f 5a3e 8071 ac3b
00000290: 44d1 15bd e394 7a3e a7ea 7cbe 414a b53e
000002a0: 6745 0abf 146a cf3e 3b2c dcbe ebb6 db3e
000002b0: a299 d2be 1ae0 793d 163f cdbe 6180 aa3d
000002c0: 2737 dcbe f3ce e3be f0ae 143f 52d3 ab3e
000002d0: f7b8 06be 5596 3c3f 2f1f bc3e d648 cb3e
000002e0: c4c6 d6be b4d8 a43c 8dc5 aebe 72b4 30be
000002f0: dbc5 a43d 4fbf df3d a856 8abe bd1f 33bf
00000300: 82b2 c3be c9c4 f2bd 88ab c1bc 1514 5b3d
00000310: 69ac aabe 1fe3 a2be 4501 8abe 0746 30bd
00000320: 7348 783e 687c fe3d 7449 c7be 8620 51bd
00000330: 73ed 9f3e 0b6e c13e f5e7 cfbe 0d7d 0abe
00000340: d194 b13e d066 1b3c f875 323e 778a 323d
00000350: a85e 563e ff4d c2bd b1ee 193f d672 c8be
00000360: 54ab 49be 4ca5 45bb 599f 15be 46f7 d53e
00000370: 37a8 75be de3b a1bd 01b7 9e3e fa7c 7cbd
00000380: 78da 09bd 5d7e b239 5b07 3e3e 6c4b af3e
00000390: 12c3 c53e 13a6 debe b011 21be b7b0 4cbe
000003a0: 9efe 77bd b8a3 d43d 1be3 9f3d da8f 01bf
000003b0: 56a4 c23c f7e7 24bd 4473 cfba 1e1b 953e
000003c0: 17da 9dbe bff6 353f 8281 13be 839c 15be
000003d0: e315 7cbe 4157 7bbe 6f03 36be 9df8 463e
000003e0: 77c6 043f febe aabe 6326 583c 265b 73be
000003f0: 9208 96be f480 cc3e c939 f0bd d751 093e
-0.25242928 -0.5956113 -0.0040758224 0.13042837 -0.16279075 0.14165714 0.27437356 0.124380976
0.19238536 -0.08268131 0.068341725 0.056223344 0.15526263 0.02774037 -0.3532892 0.5256406
0.0896498 -0.2622768 -0.14025384 0.23172492 -0.21310212 -0.30049434 0.17373627 -0.37809294
-0.2271502 -0.47564766 0.11524403 0.241738 0.00053164084 -0.67503774 -0.42291358 0.02597751
0.096692115 -0.032342672 0.23540181 0.46040955 -0.36061507 0.11423538 -0.08676375 -0.21147697
-0.30684423 -0.22455503 -0.45669687 0.511042 0.4586082 -0.10177759 -0.05885185 0.47202274
0.4152976 -0.015683684 0.2150639 -0.017143298 -0.43114132 -0.13034663 -0.38185617 -0.021403551
-0.05558362 -0.19629386 -0.011040263 0.45542789 -0.13335517 -0.21028031 -0.27239043 0.07400585
0.6210813 -0.35839158 -0.06140562 -0.24835047 0.6162114 0.2515576 -0.03890211 0.27715358
-0.15113695 -0.17170498 -0.20550162 -0.30262426 0.14945386 0.19249348 0.1970374 0.10253273
0.6368086 0.0020186773 0.78942055 0.06300692 -0.37421706 -0.35685107 -0.33081454 -0.26279888
0.14722726 -0.23248431 0.66716707 0.14190017 0.39536625 -0.07943268 -0.4531574 -0.29510036
0.13465366 0.11610572 -0.17059371 0.09411954 -0.21100253 -0.36160243 0.0106782755 0.15209353
0.080555476 -0.4622248 0.46642062 -0.17652798 -0.5934799 -0.580689 -0.2077842 0.22689284
-0.25740305 -0.07780986 -0.5776962 -0.02955205 -0.051219996 -0.17325462 -0.47936714 0.22019184
0.18719853 -0.50295293 -0.15437725 0.026125796 -0.5780808 0.07620057 -0.027133232 -0.36417043
-0.46964657 0.45352817 -0.15017053 0.42114383 0.15886669 -0.14777154 -0.25295094 0.2219691
-0.059807908 -0.22051726 -0.5517612 0.29931554 0.42807958 -0.11277772 0.15118119 -0.9581163
0.53539026 0.3254976 -0.12948358 -0.24134919 0.44510573 -0.08255689 -0.22208835 0.2409352
0.11913942 -0.004194108 -0.14884615 -0.07656371 0.39650035 -0.20960107 -0.06768372 0.41995618
-0.08016134 0.23898935 0.21301228 0.0052625537 -0.036576524 0.24470858 -0.24698888 0.35408214
-0.5401215 0.4051062 -0.43002495 0.42912993 -0.41132838 0.061004736 -0.40087193 0.083252676
-0.43010828 -0.44493827 0.58079433 0.33559662 -0.13156496 0.7366689 0.3674254 0.39704007
-0.4194852 0.020122863 -0.34135094 -0.17256334 0.080455504 0.10925161 -0.27019238 -0.69970304
-0.38222128 -0.1185394 -0.023641363 0.05348595 -0.33334664 -0.31813905 -0.26954094 -0.043035533
0.24246387 0.12426072 -0.38923228 -0.051056407 0.31235847 0.3777927 -0.40606657 -0.13524266
0.3468385 0.009484962 0.17427814 0.04358908 0.20934546 -0.09487533 0.6012984 -0.39150113
-0.19694263 -0.003015834 -0.14611568 0.41790217 -0.2398995 -0.07872747 0.30998996 -0.061642624
-0.033655614 0.00034044954 0.18557493 0.3423723 0.3862539 -0.4348608 -0.15729403 -0.19989286
-0.060545556 0.103827894 0.07806989 -0.50610125 0.023760002 -0.04026028 -0.0015827199 0.2912225
-0.30830452 0.7107963 -0.14404872 -0.14610486 -0.24617724 -0.24545003 -0.17774747 0.19430776
0.51865333 -0.3334884 0.013192746 -0.23765239 -0.29303414 0.39942133 -0.11729772 0.13410126

fc1.bias f4 [64]
00000000: 2d6b 5dbe 537d d8be e275 043e a3cb 7e3e
00000010: 4198 c3be d5fb 73be 9b17 2bbe 4a75 063f
00000020: 5924 123e 2640 84bd ff78 9cbe 0520 083d
00000030: 9394 6bbd 8cd3 c8bd ef94 78be a2ca fe3e
00000040: 3ab8 003d 4bdd efbc 57c2 00bd f2e1 b43e
00000050: 2c0f 93be 80a8 9f3e 4e44 a03e 5ad1 dc3e
00000060: bcf9 47bd 92bc 3bbe 5f01 45bd e02b 2abe
00000070: 2876 063f 5df4 7a3e f4f2 b0bd f8c6 423e
00000080: 79bc fa3e ee5f 933c ae66 483d 653e 98be
00000090: 2da5 aebe c3c0 873e 9a57 e0bb 226b 07be
000000a0: 98ff 1dbe 4965 063f f154 87be e6c8 813e
000000b0: 13f6 82bd 07dc be3e 3b42 46bd 24c7 00bf
000000c0: 75a9 b83e 2b0f 6f3e c627 72be 2378 f13e
000000d0: d0c6 dfbe cba1 14be 2410 79bd f72e 59be
000000e0: 4abf 1f3e 3712 5ebb f3ee de3e a7bb 9ebe
000000f0: 8cc7 babc a9ea c8be 9d5b 563e 5f33 d9be
-0.21622916 -0.42283115 0.12935594 0.24882369 -0.38202098 -0.23826535 -0.16708224 0.5252272
0.14271678 -0.06457548 -0.30561063 0.03323366 -0.05751474 -0.09805974 -0.24275564 0.49763972
0.031425692 -0.029280325 -0.031435337 0.35328633 -0.28722513 0.31183243 0.31302112 0.43128473
-0.04882215 -0.18333653 -0.04809701 -0.166183 0.5252404 0.2450728 -0.0864009 0.19021213
0.48971918 0.017990079 0.048926048 -0.29735103 -0.34110394 0.26514253 -0.0068463804 -0.13224462
-0.15429533 0.524983 -0.26431993 0.25348586 -0.06394591 0.37277243 -0.048403006 -0.50303864
0.36066785 0.2334563 -0.23647985 0.4716197 -0.4370637 -0.14514844 -0.06080641 -0.21209322
0.15600315 -0.0033885369 0.4354168 -0.31002542 -0.02280023 -0.39241531 0.20933385 -0.42422006

fc2.weight f4 [64, 64]
00000000: e2e0 eb3b c4d3 6e3e 4b70 3fbe 7428 c63d
00000010: baa0 2b3e 37db 163e 631b 4b3e 4f17 043e
00000020: 4afc 943e 574d bbbd 8bfb 58be b3ea c7be
00000030: 42b1 463c 666d d4be 60da 743e acc3 363c
00000040: f0d1 c03e ead5 5f3e 0b2b 89be 59cc c23d
00000050: 44b6 843a 7915 653d 6c60 833e 3581 743d
00000060: 734b 393e 1a27 4f3e a84e b9be 08ed c83e
00000070: 30eb b8bd 0d5e d03d 3260 bd3d 9cb1 f03d
00000080: 0307 913c 4ab4 48be 5d11 35bd 6f7e ab3d
00000090: 7dc8 86be 5b92 f73d 8790 93be 49d4 6d3e
000000a0: 49d0 9bbe c3a0 6c3c 1683 d83d 2a13 973d
000000b0: 6511 f83d fdf9 013e d9ec 24bd f3a7 8a3e
000000c0: f4e8 7d3e 0b53 b7be b48e b4be 1b75 05bf
000000d0: 90de 743e 26aa b3be 0388 0f3e 3906 f9bd
000000e0: b792 d53b 008d 8c3d 4c82 813d 42d8 953d
000000f0: 9159 f23d 7bfb 65bd 954a 54bf d755 e43e
00000100: 56f0 c7bc ded2 5f3e bf9e 39be 3a61 383e
00000110: 5840 b23d a9a0 33bd 9008 973d 2a72 e33d
00000120: 7580 903d b5da d6bd 0f21 66be 63a9 90be
00000130: 8b77 273e 2fa8 ffbe 635c 363e e8e4 243b
00000140: ec2f a03e aa11 d33c ff58 95be b8c7 3a3e
00000150: 4463 5bbe ce2a 503e 6208 bf3d 1e93 1e3e
00000160: a448 6c3e 2549 0c3e 5c0d 59be 29d5 643e
00000170: 4952 143e 0531 063e 84e2 56bd e6db a3bd
00000180: 0e78 a83c 739d b3bd f5b2 ed3d 0c92 cc3d
00000190: af91 ec3c a5e2 a63d a2e5 54be d63b 923d
000001a0: b72f 5bbe 9516 513e 39ba 533d 6554 3c3e
000001b0: c672 1f3e 3c78 613e b8ef 9a3c fab9 c7bd
000001c0: 8061 b13b 7ef9 1dbd 5448 c9bd b111 bfbe
000001d0: 0b33 283e 4f21 cbbe 1bbf 393e 198f 4bbd
000001e0: de54 963d ad9f 993c 3726 0b3e 9ed6 853c
000001f0: 049d 3f3d 817c a93d 3afd e8be 7961 7d3e
00000200: dab4 2ebd 313b 973e 6ae5 343e 3d7f 19be
00000210: aa5b 843d ed52 0cbd 5fd6 a03e af51 5f3e
00000220: 2ae4 14bd 5ed6 9abe 0892 68be 74e4 56be
00000230: d948 e63d 86b9 fbbe 4267 9e3e 7a72 d13d
00000240: 2994 babd 022f 4c3e d442 f0be 1dac cb3d
00000250: d637 53be b6dc c13d b8a1 80bc dba8 f03d
00000260: 90ef eb3d 0e77 023e 155e 24bf b0d6 763e
00000270: 34ba ad3e dc77 1b3d 0d5c 8bbc 351a 3c3e
00000280: 2869 423e 4d01 b1be 68ae cd3e 852a 1f3d
00000290: a9c5 a3be 121a f53d 3e65 25bd 0c82 493c
000002a0: 68af 3ebe 500e 1c3e b13a 903c 6665 dc3d
000002b0: 52ae 983d a41f 543e 384f 43be 9df3 24bd
000002c0: 5812 d73d f005 69ba caab 4dbf 2256 aebe
000002d0: 1597 1d3e bf2e 0bbf 85d6 643e 49f5 8ebd
000002e0: ac1c 203e 1708 64bc c896 6fbd d1a1 4c3d
000002f0: 629a 9c3d 4f69 7d3e e8b6 c6be 8667 373e
00000300: 83c2 183e fe72 ed3e b9a0 3abe 3e7f 493d
00000310: 3e63 13bf c1b4 da3b b16b 86bd bdf3 a4be
00000320: 73c1 dd3d cba9 b13e 5708 f6bd abf9 f13d
00000330: e1de 6a3e cac9 483e 238b 0fc0 124e 25bd
00000340: 224e ccbe 32ae fd3d 13da 02bf fdda c83e
00000350: 4b62 2e3f 6aef 4c3e 9ce1 ccbd f6c3 9dbd
00000360: 574d 59be d6f2 b33d 55dc a53e 1271 63bd
00000370: e153 353e 646b a73d 8077 9d3e e03b 3d38
00000380: d63a 1c3e 9488 bbbe e3f6 7a3e 5b55 9cbe
00000390: 904e f53e 9637 e0bc afca b5be 194a 21bf
000003a0: 868c 57be 226f d53d 5804 a8bd 7945 9a3e
000003b0: 1f6e ad3d 38b5 55be 5e0c 11bd cb27 3b3e
000003c0: b39e 5f3c 924b b63d dcbf c53e a6ea b33e
000003d0: 95b6 78be 0134 a53d 1620 96bf 4116 023e
000003e0: 2426 34be fb6f 1abf 664e 303e 1e52 e8be
000003f0: 54ce 98be faef 3fbf 69b4 cbbd ee2f 27bd
0.007198439 0.2332297 -0.1869518 0.096756846 0.16760531 0.14732061 0.19834666 0.12899517
0.2909873 -0.09145611 -0.21189706 -0.3904625 0.0121272225 -0.41489714 0.23911428 0.01115505
0.3766017 0.21858945 -0.26790652 0.095116325 0.001012512 0.05592868 0.25659502 0.059693534
0.18095188 0.2022976 -0.36192822 0.3924334 -0.090292335 0.10174189 0.092468634 0.11752626
0.017703539 -0.19600025 -0.044206012 0.08373725 -0.26324835 0.12088462 -0.28821203 0.23225512
-0.30432346 0.014442625 0.10571878 0.07376702 0.12112693 0.12693019 -0.040264938 0.2708126
0.24795896 -0.35805544 -0.35265124 -0.52131814 0.23913026 -0.3509075 0.14016728 -0.1215939
0.006517734 0.06862831 0.0632368 0.073166385 0.1183349 -0.056148034 -0.82926303 0.4459674
-0.024406593 0.21857783 -0.18126963 0.18005839 0.08703679 -0.04385439 0.0737468 0.111057594
0.07055751 -0.10490934 -0.22473548 -0.28254232 0.16354196 -0.49933 0.1780868 0.0025160853
0.3128656 0.025765259 -0.2916946 0.18240249 -0.21424586 0.20328829 0.09327771 0.15485808
0.23074585 0.13699777 -0.21196502 0.22346939 0.14484514 0.13104637 -0.052462116 -0.08000927
0.020565059 -0.087702654 0.11606399 0.09988794 0.028878061 0.08148698 -0.20790723 0.07140319
-0.2140492 0.2041877 0.051691268 0.18391569 0.15571126 0.22018522 0.018913135 -0.09752269
0.0054132342 -0.038568012 -0.098282486 -0.37318185 0.16425721 -0.3967385 0.18139307 -0.049697015
0.07340406 0.018752897 0.13588797 0.016337689 0.0467806 0.082757 -0.45505697 0.24744214
-0.042652942 0.29537347 0.1766564 -0.14989944 0.06462796 -0.03425877 0.31413552 0.21808504
-0.036350407 -0.30241674 -0.22711957 -0.20985585 0.11244363 -0.4916498 0.30938154 0.10226913
-0.091102906 0.19939807 -0.46925986 0.099449374 -0.20626768 0.094659254 -0.015702114 0.117509566
0.11520302 0.12740728 -0.6420606 0.24105334 0.33931124 0.037956104 -0.017011667 0.18369372
0.18985426 -0.34571305 0.40172124 0.03885891 -0.3198674 0.11967863 -0.040379755 0.012299072
-0.186216 0.15239835 0.017606111 0.10761528 0.07455124 0.20715195 -0.19073188 -0.04027139
0.10501546 -0.00088891294 -0.80340254 -0.3405009 0.15389664 -0.54368204 0.22347458 -0.06980378
0.15635937 -0.013917944 -0.058493406 0.049959008 0.07646634 0.24747203 -0.3881142 0.17910585
0.1491795 0.46376795 -0.18225373 0.049193613 -0.57573307 0.0066743796 -0.06563509 -0.32217208
0.10827913 0.34699854 -0.120133094 0.118151985 0.22936584 0.19608226 -2.2428672 -0.040357657
-0.3990336 0.12386741 -0.51114005 0.39229575 0.68118733 0.20013204 -0.10003969 -0.07703392
-0.21220909 0.08786552 0.32394662 -0.055527754 0.17707779 0.0817478 0.30755234 4.5116874e-05
0.15256819 -0.36627638 0.24508242 -0.3053387 0.479115 -0.027370255 -0.35506198 -0.6300369
-0.21049699 0.104215875 -0.082039535 0.30131128 0.084682696 -0.2086991 -0.035412185 0.18276899
0.013648677 0.08901133 0.3862294 0.3513996 -0.242884 0.080665596 -1.1728542 0.12703802
-0.17592674 -0.6032712 0.17217407 -0.4537515 -0.29844916 -0.7497555 -0.0994652 -0.040817194

fc2.bias f4 [64]
00000000: 99ff e8bc 186e 393e fd8c 8c3d 3ffd 4a3e
00000010: 629d 813e bd19 323b 2bef 483d 1f24 b93a
00000020: 5989 343e 90ec c93d 74f7 a03e 9bf7 e73c
00000030: 0b61 273e 1e06 4f3e a5a9 3e3e 58d3 85bc
00000040: 04e5 093e 83ee 593e 4897 f4bd 0397 15be
00000050: 1550 613e 2d55 6cbd 26ff da3d 624f c5bc
00000060: e579 903d 0019 acbd 496e 98bd 31d8 c63d
00000070: b234 3c3e 4e32 c03d 0e2d b23d 0afb 063e
00000080: bd73 fb3d e3f8 363c 7aff 7bbd 2644 f1bc
00000090: 26cb 29bd 3917 a7bd d2c2 a83e bdfd 6abb
000000a0: 8a66 523e 88c1 4c3e 0832 c03d 3099 a13d
000000b0: 76d4 c3bc 7ba6 16be 7737 093d c253 493e
000000c0: 158c ab3d c5fc 193d 8f81 05be 5fe8 0b3d
000000d0: ebf4 14bc 1fd8 91bc 7091 76bd 3100 9a3d
000000e0: 2f8b 9c3e 9086 cebc ad64 d4bc 6052 f53c
000000f0: 1415 383e 7dde 553e 2e24 b03c 95ea 9b3e
-0.028442191 0.18108404 0.06862829 0.19823168 0.25315386 0.0027175986 0.049056213 0.0014125145
0.17630519 0.09859574 0.31438792 0.02831631 0.16345613 0.20217177 0.18619402 -0.016336128
0.13466269 0.21282391 -0.11942917 -0.14608388 0.22003205 -0.057698417 0.10693197 -0.024085704
0.070544995 -0.08403206 -0.0744291 0.09709204 0.18379477 0.09384595 0.087 0.13181701
0.12277935 0.011167738 -0.06152294 -0.029451441 -0.041453503 -0.08158726 0.32961136 -0.0035856806
0.20546928 0.19995701 0.09384543 0.07890546 -0.02390502 -0.14711945 0.03350016 0.19660857
0.08376328 0.037594575 -0.13037704 0.034157153 -0.009091596 -0.01780325 -0.060197294 0.07519568
0.3057494 -0.025210649 -0.025926912 0.029946506 0.1797679 0.20885654 0.021501627 0.3045241

fc3.weight f4 [3, 64]
00000000: 0065 7b3e 69c2 9d3d 05d9 143f ee0e a4bf
00000010: 2743 023e bbcf c43c 0848 acbe 01a4 e8be
00000020: d7a0 88bf fbd6 00be cc6c 023e 2d37 6abf
00000030: 82d5 4bbf 2ef2 d73e 5d38 8b3e b459 22bf
00000040: f21d 073f b320 83bf 4086 18bf b159 8ebf
00000050: 7cc1 383f b1b4 07bf 1737 ef3d a96c 6cbf
00000060: eb8d d5bd 4894 bebb 761e 82bf 9c88 513e
00000070: f0ab 8abf 336f 1a3e 1b41 1cbf d52b a03e
00000080: b6cf 63bf 7045 a2bf 0a49 41bf 43a7 cfbd
00000090: 246c c3be fff6 34bd f5d3 aa3e d0bd c4be
000000a0: 91d8 9b3e b6bd 24bf 20fe 8a3f c889 5f3f
000000b0: 80e1 6ebf 132e febd 0f00 173f ca88 b23e
000000c0: c1a8 9d3d 3e91 793e 5a71 2e3f fa8a 023f
000000d0: 4103 533f 8a36 fe3e 31af 73bf 8365 4a3e
000000e0: c291 0c3f 8264 edbe 2d2d 193f 53d8 89be
000000f0: c89d 423f 912b 5e3e 23c4 443d 8767 943e
00000100: a97f 9e3e d93f 1a3e d505 083f 05f0 aebf
00000110: 05fe f83d 4adb da3d f730 cdbe 30c8 f9be
00000120: d665 92bf c2af 863c b5a8 853e 660b 73bf
00000130: cd81 58bf 7c74 ac3e 49d6 7a3e c8ca 0abf
00000140: 5cd1 fa3e 3c94 80bf b8aa 20bf 25a4 8fbf
00000150: 1340 3c3f b800 35bf e366 583e 6e52 61bf
00000160: 1a05 37be e9a6 b4bd 3e99 8bbf 13a1 523e
00000170: 3acc 8abf e50e 453d 1fe8 18bf 107a b93e
00000180: 86f9 5bbf 3dde a1bf 035c 46bf b187 583d
00000190: f0a1 a8be cae0 b73d 7aae 813e 9804 b4be
000001a0: 472a 2a3e f3ea 17bf 0265 843f 8598 593f
000001b0: 0bc1 62bf 4ad3 debd a14b 243f 757e 9b3e
000001c0: 1ddc 0d3e 0216 923e 97eb 233f ec05 0b3f
000001d0: 16da 453f 627c 043f 7889 71bf 692b b73d
000001e0: 5812 fb3e abcb ecbe da49 0c3f 6e78 37be
000001f0: 0006 483f 9b9a 7b3e 1b84 1b3d 72fb c63e
00000200: fcdc 063f 3aee c83e be4a 9b3e 17a4 78bf
00000210: 4427 983e 4ca5 c2be ece1 2abf 41c9 36bf
00000220: 2e96 43bf 0efe 37be 6174 783e 78a6 edbe
00000230: e0cd 1bbf 3948 9dbe f9c0 8b3e 7f9b 49bf
00000240: 3cab da3e 726a 65bf 97ae 31bf a31e 86bf
00000250: 2104 1c3f 978f 58bf 7951 943e 6c1f a4bf
00000260: 60d8 12bf bdfa b63c 3af4 85bf 724a e43e
00000270: 40e2 b3bf a223 8a3e 6589 433d 397a 0bbd
00000280: 13e9 f6be 07f6 50bf 7e69 5abf 16a1 15be
00000290: 9d2e 4abf 8438 793d 5500 6d3e a60e f9be
000002a0: 6a63 813e 6d26 38bf 101c 373f 3499 3c3f
000002b0: 88df 5ebf fda3 893d b53f f43e f7e9 963e
000002c0: 7ae9 7a3e 4581 b53e 8e64 0a3f 5d99 d43e
000002d0: d0c4 233f e55c 5c3f dad9 b0bf f5d2 a13e
000002e0: ca2b e03e b38b f2be 2e5e d83d cdee fdbe
000002f0: 9b09 933e c457 8f3e 9fba 9abe 4c65 c23e
0.24550247 0.077030964 0.58143646 -1.2817056 0.12720929 0.024024835 -0.33648705 -0.45437625
-1.0674084 -0.12582009 0.12736815 -0.9149044 -0.7962266 0.42176956 0.2719144 -0.63418126
0.5278007 -1.0244354 -0.5957985 -1.1121122 0.72170234 -0.5301009 0.116804294 -0.923533
-0.10427459 -0.0058160163 -1.0165546 0.20462269 -1.0833721 0.15081482 -0.61036843 0.3128344
-0.88988817 -1.2677441 -0.75502074 -0.101393245 -0.38168442 -0.044180866 0.33364835 -0.38426065
0.30438665 -0.64351976 1.0858803 0.8731961 -0.93312836 -0.12411132 0.58984464 0.34869987
0.07698203 0.24371812 0.6814171 0.5099331 0.8242684 0.49650985 -0.95189196 0.19765286
0.5490991 -0.46365744 0.5983456 -0.26922855 0.76022005 0.21696307 0.048038613 0.28985235
0.30956772 0.15063418 0.531339 -1.3666998 0.121578254 0.10686357 -0.4007642 -0.48785543
-1.1437328 0.01644123 0.26105276 -0.9493927 -0.8457306 0.3368262 0.24495806 -0.5421567
0.48987854 -1.0045238 -0.62760496 -1.1221968 0.7353527 -0.7070422 0.21132998 -0.880164
-0.1787304 -0.08820898 -1.0906141 0.20569257 -1.0843575 0.048109908 -0.5972919 0.3622594
-0.8592762 -1.2645947 -0.7748415 0.05286378 -0.32936049 0.08978422 0.25328428 -0.35159755
0.1661769 -0.5934288 1.0343325 0.8499835 -0.8857581 -0.10880144 0.641779 0.30369917
0.13853498 0.28532416 0.64031357 0.5430591 0.772859 0.51752293 -0.94350386 0.08943827
0.49037433 -0.46249136 0.5480019 -0.17917034 0.78134155 0.24570696 0.037967782 0.38863713
0.52680945 0.39244252 0.3033046 -0.9712538 0.29717457 -0.38016737 -0.6675098 -0.7140084
-0.7640103 -0.17968008 0.24263145 -0.46416068 -0.60861015 -0.30719164 0.27295664 -0.78752893
0.42708766 -0.8961555 -0.6940703 -1.04781 0.609438 -0.845941 0.2896841 -1.2822089
-0.5736141 0.022336358 -1.0465157 0.44588047 -1.4053421 0.2698031 0.04773845 -0.034052107
-0.48224697 -0.8162541 -0.8531722 -0.1461223 -0.78977376 0.060844913 0.23144658 -0.48643988
0.2527116 -0.71933633 0.71527195 0.7367127 -0.8705983 0.067207314 0.47704855 0.29475376
0.24503127 0.35450187 0.54059684 0.41523257 0.6397219 0.86079246 -1.3816483 0.3160626
0.43783408 -0.47372207 0.10564838 -0.49596253 0.28718266 0.27996647 -0.30220506 0.37967908

fc3.bias f4 [3]
00000000: 6215 273e 8361 623e b13e 4b3d
0.1631675 0.2210751 0.049620334
