checkpoint_000997.pth (torch, 24599 bytes, 6 tensors)

fc1.weight f4 [64, 20]
0	0xbedf7553	-0.436442
1	0xbe36f276	-0.17865929
2	0xbec38285	-0.38185516
3	0xbe16d874	-0.14731008
4	0xbe18309a	-0.1486229
5	0xbeb5bb02	-0.35494238
6	0x3c2a0f30	0.010379598
7	0x3d1ea064	0.03872718
8	0xbe3676fe	-0.1781883
9	0x3da8a92c	0.08235392
10	0xbdb535dd	-0.08848164
11	0x3eda0634	0.42582858
12	0x3d353c32	0.04424686
13	0x3e373ddd	0.17894693
14	0x3cfc40f7	0.030792696
15	0x3e5a0b8b	0.21293466
16	0x3d6ec28e	0.05829101
17	0xbe7ff469	-0.24995579
18	0xbe8a41a6	-0.2700321
19	0x3c55950d	0.013036025
20	0xbe6e7120	-0.23285341
21	0x3e9a8da8	0.301862
22	0x3ec875d3	0.39152393
23	0x3dc50e2f	0.09621846
24	0x3ebf1846	0.37323207
25	0x3ddaedf6	0.10689919
26	0x3dfa2c7e	0.122155175
27	0x3ea5de7b	0.32396302
28	0x3e51a582	0.20473292
29	0xbe605760	-0.21908331
30	0x3e71598a	0.23569313
31	0xbc42a621	-0.0118804285
32	0x3e40189c	0.18759388
33	0xbecc6508	-0.3992083
34	0xbd2e4926	-0.04255023
35	0x3e39d7d7	0.18148743
36	0xbdaba78d	-0.08381567
37	0xbd9802be	-0.07422398
38	0x3eaea016	0.3410651
39	0x3e56e8d3	0.20987253
40	0x3dd5a157	0.10431164
41	0xbd895d6d	-0.06707273
42	0x3efddcd0	0.4958253
43	0xbda01a8f	-0.07817566
44	0x3e206d09	0.15666594
45	0xbf0df7b6	-0.554561
46	0xbdd02b92	-0.101645604
47	0xbeff66f9	-0.4988325
48	0xbeb09455	-0.34488168
49	0xbe0758cc	-0.13217467
50	0xbdd0540a	-0.10172279
51	0x3ec81ba3	0.39083585
52	0xbdf7c1a9	-0.120974846
53	0x3db518df	0.088426344
54	0x3db4c936	0.088274404
55	0x3e9921b5	0.2990853
56	0x3df7e6ca	0.121045664
57	0x3eec3ffa	0.4614256
58	0x3e17baca	0.14817348
59	0x3e5ebd87	0.21751986
60	0xbea3039b	-0.31838688
61	0x3ea7b261	0.3275328
62	0x3dd4b385	0.10385803
63	0xbd43a22c	-0.04776208
64	0xbd7d3634	-0.06181927
65	0xbdd65022	-0.10464503
66	0xbec18fe2	-0.37805086
67	0x3ec3e30a	0.38259155
68	0x3c11a2b0	0.008888885
69	0xbca7b8b8	-0.020473823
70	0x3e18a305	0.14905937
71	0xbe7f3b31	-0.24924923
72	0x3ec213f1	0.3790584
73	0xbd9483b0	-0.0725168
74	0xbd4d01aa	-0.050050415
75	0xbd2ac010	-0.04168707
76	0xbea6e97d	-0.32600012
77	0xbe800713	-0.25005397
78	0x3ddaecc6	0.10689692
79	0x3ec5d68b	0.38640246
80	0xbe0236a5	-0.12716158
81	0xbd82ad65	-0.06380729
82	0x3e196666	0.14980468
83	0x3d9a4a1b	0.07533666
84	0xbec24268	-0.3794129
85	0x3d57f342	0.052722223
86	0xbe291dbc	-0.16515249
87	0x3ea263c1	0.3171673
88	0x3dd6e3ac	0.10492644
89	0x3ec5eba1	0.38656333
90	0x3e67735c	0.226026
91	0x3ee9b05d	0.45642367
92	0xbe343f1d	-0.17602201
93	0xbe56a780	-0.20962334
94	0xbea3793a	-0.31928426
95	0xbd828fe7	-0.063751034
96	0x3e73a43d	0.2379312
97	0x3eba06ed	0.3633341
98	0x3ec3bc33	0.38229522
99	0x3da83755	0.08213679
100	0xbe27a0c6	-0.16369924
101	0x3e9c428e	0.30519527
102	0xbe3cad5f	-0.18425511
103	0xbe865fc7	-0.26244947
104	0x3e8d2aee	0.27571815
105	0x3d800f2d	0.062528946
106	0x3e2187eb	0.15774505
107	0x3e0f0052	0.13964966
108	0x3c05ffa4	0.008178625
109	0xbdb9e6cc	-0.09077224
110	0xbf19462f	-0.59872717
111	0x3ec8ba2a	0.39204532
112	0xbe1a10f7	-0.15045534
113	0x3dbb48e3	0.091447614
114	0x3db3b93f	0.08775567
115	0xbe1b272f	-0.15151666
116	0xbe706ccb	-0.23479001
117	0x3ef06c61	0.46957687
118	0x3ecf89d3	0.4053484
119	0x3eb10cf2	0.3458019
120	0x3d05d53e	0.032674067
121	0xbeda0d3e	-0.42588228
122	0xbd4db5b3	-0.05022211
123	0x3e8a8651	0.270556
124	0x3e3094e9	0.17244305
125	0xbe0f0497	-0.13966595
126	0xbeda9b4f	-0.42696616
127	0x3e8d31fc	0.27577198
128	0xbdd63d23	-0.1046088
129	0xbe4dbba0	-0.20091105
130	0xbe17685b	-0.14785902
131	0x3eb187db	0.34673962
132	0x3e7f187e	0.24911687
133	0xbdf86179	-0.121279664
134	0xbdef6852	-0.116898194
135	0xbeb41bb2	-0.3517738
136	0xbe0de13a	-0.13855448
137	0xbe467152	-0.19379166
138	0x3e6d028a	0.231455
139	0x3ee14a1a	0.44001848
140	0xbdd98f1e	-0.106230006
141	0x3eaf90b8	0.342901
142	0xbe5c19fa	-0.21494284
143	0xbe32c11d	-0.1745648
144	0xbd2fedfc	-0.04295157
145	0x3d9cf858	0.07664555
146	0x3b9278fb	0.0044699884
147	0xbdd46265	-0.1037033
148	0x3d5d0bfe	0.053966515
149	0xbdc4a4c4	-0.09601739
150	0x3e684181	0.22681238
151	0x3d036304	0.03207685
152	0x3def3479	0.1167993
153	0xbf0445ee	-0.51669204
154	0xbd0e8fe6	-0.0348052
155	0x3e8e1cdd	0.27756396
156	0x3e11ff9f	0.14257668
157	0x3f037f2c	0.51365924
158	0x3d530a39	0.05152342
159	0x3e582552	0.21107987
160	0x3cfbe6ec	0.03074976
161	0x3e5dd1c9	0.21662058
162	0x3ee072ea	0.43837672
163	0xbe782c36	-0.24235615
164	0x3e9ab8b0	0.3021903
165	0xbea15a54	-0.31514227
166	0xbe18cf44	-0.14922816
167	0x3d199475	0.037495095
168	0xbe033936	-0.12814793
169	0x3e12e5c5	0.14345463
170	0x3d913e36	0.07091944
171	0xbe5c065c	-0.21486801
172	0x3e1ccbe8	0.15312159
173	0x3e48adee	0.19597599
174	0x3a0dbd0a	0.0005406892
175	0xbf0a9166	-0.5412811
176	0x3f4254ab	0.75910443
177	0xbdce7716	-0.100813076
178	0x3e516eec	0.2045247
179	0x3b46d01a	0.003033644
180	0x3ddb8fc9	0.10720784
181	0x3e0f668d	0.14003964
182	0xbdc55daa	-0.096370056
183	0xbeed5331	-0.46352533
184	0xbdcb17bf	-0.099166386
185	0xbbaa364d	-0.0051944614
186	0xbed88dac	-0.42295587
187	0x3ca639b4	0.020291187
188	0x3d8c49fb	0.06850048
189	0x3d0d5c61	0.034511928
190	0xbe1c9fa0	-0.15295267
191	0xbeb173c7	-0.34658644
192	0x3e8cc704	0.27495587
193	0x3e902ab2	0.28157574
194	0x3e3cfd53	0.1845601
195	0x3eddb2e6	0.4330055
196	0xbdfba3ed	-0.12287126
197	0x3cd80005	0.026367197
198	0x3e8f4808	0.27984643
199	0x3cd6c762	0.02621812
200	0x3ee66b4d	0.4500374
201	0xbd6ec244	-0.058290735
202	0xbe9fa4c5	-0.31180397
203	0xbe76d17e	-0.24103352
204	0x3ed5fdda	0.41795236
205	0xbd3057a6	-0.043052338
206	0xbe78e427	-0.24305783
207	0x3ea15d4a	0.31516486
208	0xbdedc533	-0.116098784
209	0xbcf19a3a	-0.029492486
210	0x3e8f0d48	0.2793982
211	0xbde6c98e	-0.11268912
212	0xbe4c3414	-0.19941741
213	0x3d8601c0	0.065433025
214	0xbe78073b	-0.24221508
215	0x3e535e14	0.20641357
216	0x3d93fa5f	0.07225489
217	0xbe004175	-0.1252497
218	0x3e6e62ed	0.23279925
219	0xbed1b020	-0.40954685
220	0x3d48b702	0.049002655
221	0x3ee73923	0.4516078
222	0xbf19e9e3	-0.6012251
223	0x3ef1657e	0.47147745
224	0xbb9e61ac	-0.0048334207
225	0xbddb7fb8	-0.1071772
226	0x3e875760	0.2643385
227	0x3deae5ee	0.11469637
228	0xbd5a1883	-0.053246032
229	0xbe77f64f	-0.24215053
230	0xbdc2e367	-0.0951603
231	0x3e8ebb15	0.27877107
232	0x3e90cb4e	0.2828011
233	0xbdc494d2	-0.09598698
234	0x3e0a1729	0.13485397
235	0xbec12b87	-0.3772852
236	0x3e5be592	0.21474293
237	0xbd730518	-0.05933103
238	0xbe4000ef	-0.18750356
239	0xbd203452	-0.039112397
240	0x3e53c132	0.20679167
241	0x3e1137bb	0.14181416
242	0xbe889cc6	-0.2668211
243	0x3e048e86	0.12944993
244	0x3d6744e9	0.056462202
245	0xbd303d47	-0.04302719
246	0x3f0cd785	0.55016357
247	0x3ea3a022	0.3195811
248	0x3e35ef11	0.17766978
249	0x3eec6280	0.461689
250	0x3f203202	0.62576306
251	0x3e1afdb5	0.15135844
252	0xbe3b2967	-0.18277512
253	0xbe3d3296	-0.18476328
254	0xbeb7da2a	-0.35908633
255	0xbe4967ec	-0.1966855

fc1.bias f4 [64]
0	0x3e4a901d	0.19781537
1	0xbe61272a	-0.21987596
2	0x3bf46d8f	0.0074593495
3	0xbd6e6e86	-0.058210872
4	0xbe39d062	-0.18145898
5	0xbe9c4771	-0.30523255
6	0xbc2d7683	-0.010587337
7	0x3dbe2ca9	0.09285862
8	0x3e6d8b6b	0.23197715
9	0xbe0ba6bc	-0.13637823
10	0xbdcc59f1	-0.099780925
11	0xbde9249b	-0.11383935
12	0xbc74562e	-0.014913125
13	0xbe91302d	-0.28357068
14	0xbd7d4611	-0.0618344
15	0xbe3bbf7c	-0.18334764
16	0x3e625f10	0.22106576
17	0xbe2313bd	-0.15925498
18	0xbe27d01c	-0.16387981
19	0xbd93eed1	-0.07223285
20	0xbddaa73b	-0.10676428
21	0xbcae9538	-0.021311387
22	0x3d96cdfd	0.07363508
23	0x3df51552	0.11966957
24	0xbd069c6e	-0.032864027
25	0x3e4c5637	0.19954763
26	0xbe091294	-0.13385993
27	0x3e857fb4	0.26073992
28	0xbd04fe23	-0.032468926
29	0xbdc7d438	-0.097572744
30	0xbe3ff889	-0.18747152
31	0x3e1a10c4	0.15045458
32	0x3e3f5aa7	0.18686925
33	0xbdae632c	-0.08515009
34	0x3d927385	0.0715094
35	0xbe1269a4	-0.14298111
36	0x3dd2a265	0.102848805
37	0x3de598ba	0.11210771
38	0x3dfbce33	0.12295189
39	0x3e50deea	0.20397535
40	0xbe23d3d9	-0.15998782
41	0x3b2dddb0	0.002652984
42	0xbe3f7351	-0.18696333
43	0xbc639939	-0.013891512
44	0x3dc56e91	0.096402295
45	0x3e4e9b2d	0.20176382
46	0x3d75c53b	0.060002547
47	0xbdfcfa31	-0.12352408
48	0x3dceb9fa	0.10094066
49	0x3cfcc766	0.0308568
50	0x3e494e0f	0.19658683
51	0x3e5fbf99	0.21850432
52	0xbb4e88d2	-0.0031514657
53	0xbd0cbed9	-0.034361694
54	0xbe6777bb	-0.22604267
55	0xbd109430	-0.035297573
56	0xbd4147a9	-0.04718748
57	0xbd35118b	-0.044206183
58	0x3dd96e66	0.1061676
59	0xbe8e1b07	-0.27754995
60	0x3dc54272	0.09631814
61	0xbdee3720	-0.11631608
62	0x3e7832f9	0.24238195
63	0x3e360b38	0.17777717

fc2.weight f4 [64, 64]
0	0xbdf8ffaf	-0.12158143
1	0xbc219770	-0.009862766
2	0x3e39ae1d	0.18132825
3	0xbbef1a57	-0.007296841
4	0xba971227	-0.0011525796
5	0x3e8927e6	0.26788253
6	0xbd6fad36	-0.058514796
7	0x3df30e3c	0.11867949
8	0x3d1e3f7f	0.038634773
9	0x3e136482	0.1439381
10	0x3e043ee3	0.12914614
11	0xbc8114e0	-0.015757024
12	0x3c1620d5	0.009163101
13	0xbdf0c534	-0.117563635
14	0x3ca8c3de	0.02060121
15	0xbeaab6c6	-0.3334257
16	0x3e397b86	0.18113527
17	0x3e4572cf	0.19282077
18	0x3da942d7	0.08264702
19	0xbe55827c	-0.20850557
20	0x3e5074d9	0.20357074
21	0xbea64af0	-0.32479048
22	0xbde16a5e	-0.11006616
23	0xbe8a762c	-0.27043283
24	0xbd9c2f58	-0.076262176
25	0xbe2108ef	-0.15726064
26	0x3d82e118	0.063905895
27	0x3e1700ac	0.1474635
28	0xbd1f955f	-0.03896081
29	0xbe9b8b01	-0.3037949
30	0x3dfc1b22	0.12309863
31	0xbedb161e	-0.42790312
32	0x3cf8b347	0.030358924
33	0xbe3f132e	-0.1865966
34	0xbc137287	-0.008999473
35	0x3e1f2d41	0.15544607
36	0xbc862b19	-0.016377972
37	0x3cb115ac	0.02161678
38	0x3c37ce2c	0.011218589
39	0x3da8f740	0.08250284
40	0xbed436d4	-0.4144808
41	0x3cee3020	0.029075682
42	0x3dc080ee	0.093995914
43	0x3ed077aa	0.40716296
44	0x3d7f0526	0.06226077
45	0xbd08f21e	-0.033434026
46	0xbe273f89	-0.1633283
47	0xbd8280b9	-0.06372208
48	0xbd4c7925	-0.04992022
49	0xbcbc626e	-0.022996154
50	0xbd9513b5	-0.072791494
51	0x3e5ff2d4	0.21869975
52	0xbef87c05	-0.4853212
53	0xbdff90a1	-0.12478758
54	0x3e1c25f3	0.15248851
55	0xbd4f3e37	-0.050596442
56	0xbdfc1e00	-0.123104095
57	0x3e81bc09	0.25338772
58	0xbdf96681	-0.12177754
59	0x3d3ab353	0.045581173
60	0x3e5b1096	0.21393046
61	0xbe00f469	-0.12593235
62	0x3e6b49c5	0.2297736
63	0xbe731fd6	-0.23742613
64	0x3e6d00a3	0.23144774
65	0xbcc9cd87	-0.024634136
66	0x3c90486e	0.017612662
67	0x3dada8a3	0.084794305
68	0xbd67124d	-0.056413937
69	0xbe18c109	-0.14917387
70	0x3e26face	0.16306612
71	0xbef17607	-0.4716036
72	0xbe16c043	-0.1472178
73	0xbd9e70e3	-0.07736375
74	0xbd94c0c4	-0.072633296
75	0xbd94c1f8	-0.07263559
76	0x3e4acd81	0.19804956
77	0x3f215d62	0.63033116
78	0x3e2ec749	0.17068209
79	0xbe466236	-0.19373402
80	0xbea3b5b5	-0.3197457
81	0x3caf1517	0.021372361
82	0xbe6fbac0	-0.23411083
83	0xbe28a6ee	-0.16469929
84	0xbedfad62	-0.43686968
85	0xbd6e4b24	-0.05817713
86	0x3e2eee50	0.17083097
87	0x3e283c9d	0.16429372
88	0xbe62c389	-0.22144903
89	0xbd6bc005	-0.05755617
90	0xbd37d475	-0.04488035
91	0x38906a98	6.88631e-05
92	0x3e3d4b63	0.18485789
93	0x3d2fb4ab	0.042896908
94	0x3cfc8382	0.030824427
95	0x3e787124	0.2426191
96	0xbeaf80a7	-0.3427784
97	0x3e3b715e	0.18304965
98	0xbec86b8d	-0.39144555
99	0xbed6d01b	-0.41955647
100	0xbdf47a4c	-0.11937389
101	0x3df0b44d	0.1175314
102	0x3e9e3193	0.30897197
103	0xbed2390e	-0.41059154
104	0xbe7a040f	-0.2441561
105	0x3e77b9a2	0.24191907
106	0xbebc4089	-0.36767986
107	0x3d911bc2	0.070853725
108	0xbde50da0	-0.111842394
109	0x3e126663	0.1429687
110	0x3b812969	0.003941704
111	0x3d8fd8ff	0.070238106
112	0x3d9d0239	0.076664396
113	0xbd1b9b91	-0.037990157
114	0xbea2e1ba	-0.3181284
115	0xbe281f39	-0.1641816
116	0x3de19cca	0.11016233
117	0xbe7ce26a	-0.24695745
118	0xbee9c06b	-0.45654616
119	0x3e234b9e	0.15946814
120	0x3e9174a9	0.28409317
121	0x3dd146a4	0.10218552
122	0x3e2ce207	0.16883098
123	0xbe27d506	-0.16389856
124	0xbea35625	-0.3190166
125	0x3dadad50	0.08480322
126	0xbe5d8b50	-0.21635175
127	0x3e8a4bc9	0.27010944
128	0x3d8d4eef	0.06899821
129	0xbdda7aef	-0.10667979
130	0x3db72fc7	0.0894466
131	0x3e17896b	0.14798515
132	0xbe518de4	-0.20464283
133	0xbe2fbcd2	-0.17161873
134	0xbd2903ab	-0.041263264
135	0xbee3884e	-0.4443993
136	0xbe2a7cee	-0.1664922
137	0xbd6de7d2	-0.05808241
138	0xbe9b951d	-0.30387202
139	0xbdcce122	-0.10003878
140	0x3e317dc8	0.17333138
141	0x3e17bcee	0.14818165
142	0x3e8d6a89	0.27620342
143	0xbecacf5a	-0.39611322
144	0xbe484332	-0.19556883
145	0xbf02e24c	-0.5112655
146	0xbe86dfe7	-0.263427
147	0x3ce7a976	0.028279047
148	0x3e1dcb59	0.15409602
149	0x3daae3ff	0.08344268
150	0x3e08e351	0.13367964
151	0xbd50b338	-0.050952166
152	0xbda47198	-0.08029479
153	0x3e469c12	0.19395474
154	0xbe5557a8	-0.2083422
155	0x3bc05031	0.0058689346
156	0x3e07ad43	0.13249688
157	0x3e0e17e9	0.13876309
158	0x3e260b75	0.16215308
159	0x3e2debac	0.16984433
160	0xbe12d4ad	-0.14338942
161	0x3e0f187a	0.13974181
162	0xbe7f4059	-0.2492689
163	0xbf02e1e9	-0.5112596
164	0x3d2b0c44	0.041759744
165	0x3dd70926	0.10499792
166	0x3d124463	0.03570975
167	0xbed47b39	-0.4150026
168	0x3cbbd4d4	0.022928633
169	0x3e595bbc	0.212264
170	0xbcee2c99	-0.029074
171	0x3e2a4b9f	0.1663041
172	0xbe9629f5	-0.29328886
173	0xbcebe508	-0.028795734
174	0xbb9e1ac6	-0.004824969
175	0x3d901e39	0.070370145
176	0x3e7b5a02	0.24546054
177	0x3e3d2988	0.18472874
178	0xbe620664	-0.2207275
179	0xbda7ee81	-0.08199788
180	0x3dc8940e	0.09793864
181	0xbe1f7309	-0.15571226
182	0xbdbd4932	-0.092424765
183	0x3dccf067	0.100067906
184	0x3c8199df	0.015820442
185	0xbe5a0693	-0.2129157
186	0x3e84d82e	0.25946182
187	0xbdc05199	-0.093905635
188	0xbdbe3f86	-0.0928946
189	0xbd2a54f9	-0.041584942
190	0xbea54b11	-0.32283834
191	0x3e495094	0.19659644
192	0x3e38fccc	0.18065184
193	0x3e0821c7	0.13294135
194	0x3e1b6849	0.151765
195	0xbc9b2292	-0.018937383
196	0x3d299139	0.04139826
197	0x3e34f160	0.17670202
198	0x3e11fd39	0.14256753
199	0x3de92467	0.11383896
200	0x3e677899	0.22604598
201	0x3db8d92d	0.09025798
202	0x3c21c3bc	0.009873327
203	0xbc355836	-0.011068394
204	0x3e26671e	0.16250274
205	0xbe3d749c	-0.18501514
206	0x3ce86253	0.028367197
207	0xbd13e187	-0.03610375
208	0x3db719fb	0.08940502
209	0x3eae0a7c	0.33992374
210	0x3dc6395c	0.09678909
211	0x3e416f25	0.18890055
212	0xbd01bebd	-0.031676043
213	0x3e22f0f8	0.15912235
214	0x3d85fa22	0.0654185
215	0x3da44e19	0.080227084
216	0x3e241de2	0.16027024
217	0x3e73180c	0.23739642
218	0x3da26d35	0.07930986
219	0x3e5fd9f8	0.21860492
220	0x3e3c69e2	0.18399766
221	0x3e463ab7	0.19358335
222	0x3d1cf53b	0.038319807
223	0x3e6d5554	0.23177081
224	0x3e5ad342	0.21369651
225	0xbd5b9b66	-0.053614996
226	0x3e53b30a	0.20673767
227	0x3d5e74f8	0.05431077
228	0x3dca8f31	0.09890593
229	0x3af106d4	0.0018388876
230	0x3d529671	0.051413003
231	0x3dbe5a26	0.09294538
232	0x3ea561cb	0.32301173
233	0x3e1ea097	0.15490948
234	0x3ce9f822	0.028560702
235	0x3e2a1885	0.16610916
236	0xbc5f3221	-0.0136227915
237	0x3e24d3b2	0.1609638
238	0x3da5f3e8	0.08103162
239	0x3d24f353	0.040271115
240	0x3e2b5b76	0.16734108
241	0x3e1dd4dc	0.1541323
242	0x3ea6c88a	0.32574874
243	0x3e4d84c4	0.20070177
244	0x3ee9274b	0.4553779
245	0x3e0e3e33	0.13890915
246	0xbe60f46b	-0.21968238
247	0xbd319422	-0.04335416
248	0x3d677e87	0.05651715
249	0xbc381f99	-0.011238002
250	0x3e900ecc	0.2813629
251	0x3cb64ff5	0.022254923
252	0x3e64cce1	0.2234378
253	0x3bdc9051	0.006731071
254	0x3e228039	0.15869226
255	0x3e6f93e1	0.23396255

fc2.bias f4 [64]
0	0x3c549f8c	0.012977492
1	0x3dacc396	0.084357426
2	0xbc406bda	-0.011744464
3	0x3e644f59	0.22295894
4	0xbd5d9c2c	-0.054104015
5	0x3e68d686	0.22738084
6	0xbd84037c	-0.06445977
7	0x3d15d9cd	0.036584664
8	0x3db4ac6b	0.088219486
9	0x3e7ec638	0.24880302
10	0x3d4a70e4	0.049424067
11	0x3e9ac609	0.30229214
12	0xbe18459d	-0.14870305
13	0xbd9df249	-0.07712228
14	0x3e7bc03c	0.2458505
15	0x3da0fc2e	0.078605995
16	0x3d849641	0.06473971
17	0x3d3e76fa	0.046500184
18	0xbd810284	-0.06299308
19	0xbd9b1e07	-0.07574087
20	0x3d1803d5	0.03711303
21	0x3e532c90	0.20622468
22	0x3e0eacb7	0.13933073
23	0xbdffebab	-0.12496122
24	0xbd1628d7	-0.03666004
25	0xbdb4f5ca	-0.08835943
26	0x3dd2b7ab	0.10288938
27	0x3e1e7b92	0.15476826
28	0xbdc4703e	-0.09591721
29	0xbce01858	-0.027355358
30	0xbdd9150c	-0.105997175
31	0x3cab738d	0.020929122
32	0x3d09323d	0.033495177
33	0xbd4ccdb3	-0.050000858
34	0xbd8fa812	-0.07014479
35	0xbdcc1846	-0.09965567
36	0xbd9c2eeb	-0.076261364
37	0x3c1d9bc8	0.009619661
38	0x3d45ff06	0.048338912
39	0x3e4e0a89	0.20121206
40	0x3d92ca99	0.07167549
41	0x3dab21b1	0.083560355
42	0x3cccf75d	0.025020296
43	0xbd9ee5a2	-0.07758643
44	0x3e030498	0.12794721
45	0xbdef48a1	-0.11683775
46	0xbcf29590	-0.029612333
47	0xbc04e086	-0.008110171
48	0x3dbe255c	0.092844695
49	0x3d9d1384	0.07669738
50	0x3b846e31	0.004041456
51	0x3df807a7	0.121108346
52	0x3e0aad0b	0.13542573
53	0x3e05f295	0.13080819
54	0x3d4a97e2	0.049461253
55	0x3e0a5a54	0.1351102
56	0x3e86cc41	0.26327708
57	0xbd26315d	-0.04057442
58	0x3e3e5838	0.1858834
59	0x3e1d39cf	0.15354083
60	0x3ddb4475	0.107064165
61	0xbd1008c6	-0.035164617
62	0x3dac7051	0.0841986
63	0x3de30c98	0.110863864

fc3.weight f4 [3, 64]
0	0x3ecead83	0.40366754
1	0x3f6409da	0.8907753
2	0x3ef7c187	0.48389837
3	0xbe8af2aa	-0.27138263
4	0x3f02c957	0.5108847
5	0xbeea07b8	-0.45709014
6	0x3efbb64e	0.49162525
7	0x3f204dec	0.626189
8	0xbe46e368	-0.19422686
9	0xbe596d61	-0.21233131
10	0xbf1ab14b	-0.6042678
11	0xbe827877	-0.25482532
12	0xbdd874e7	-0.10569172
13	0x3ed5f741	0.41790202
14	0xbe6c346c	-0.23066872
15	0xbdc4d6b9	-0.096112676
16	0x3f4537e6	0.7703842
17	0xbedafb37	-0.42769787
18	0x3f0af620	0.54281807
19	0xbc150109	-0.009094485
20	0x3f68e420	0.9097309
21	0xbf121671	-0.5706549
22	0xbf31d317	-0.6946272
23	0xbc38e38f	-0.011284723
24	0xbf2c5421	-0.6731587
25	0xbdb6aa6c	-0.08919224
26	0x3fa35b77	1.2762288
27	0x3f4ad993	0.7923824
28	0xbebdfa06	-0.37104815
29	0x3f1e9ee8	0.6196122
30	0xbe956463	-0.2917815
31	0xbf08c628	-0.5342736
32	0xbe54f8a9	-0.20797981
33	0xbf1e87ae	-0.6192578
34	0xbd5aa0a0	-0.05337584
35	0x3d904eba	0.07046266
36	0x3ea6eb7c	0.32601535
37	0xbaf3340b	-0.0018554939
38	0xbea7621a	-0.32692033
39	0x3f735b94	0.9506161
40	0xbf1cb3a7	-0.6121163
41	0xbe8ec16d	-0.27881947
42	0xbe919bd9	-0.28439215
43	0x3eeee9c2	0.46662718
44	0xbe9f8064	-0.31152642
45	0x3e2b46a7	0.1672617
46	0xbed23865	-0.4105865
47	0xbf1c5081	-0.6106034
48	0x3f93f4a4	1.1559033
49	0xbef4c1cb	-0.47804102
50	0x3f2878a2	0.6580907
51	0x3ecd1ecd	0.40062562
52	0x3f96e42f	1.1788386
53	0x3ebd87d1	0.37017682
54	0xbf3c3d18	-0.7353072
55	0xbe94ccc4	-0.29062474
56	0xbe8454a1	-0.25845817
57	0x3f459ee1	0.77195555
58	0x3f49230a	0.7856909
59	0x3fbc222c	1.4697928
60	0xbde1926e	-0.11014257
61	0xbe46ed56	-0.19426474
62	0x3f844517	1.0333585
63	0x3f78691b	0.9703538
64	0x3e92b456	0.2865321
65	0x3f7a1522	0.97688496
66	0x3f111ad5	0.5668157
67	0xbd8f7761	-0.070051916
68	0x3e402e64	0.18767697
69	0xbf0b7c16	-0.54486215
70	0x3da39b87	0.07988649
71	0x3f369841	0.7132607
72	0x3dc4329b	0.09579965
73	0xbeb37805	-0.35052505
74	0xbf0985d8	-0.53719854
75	0xbe73f60e	-0.23824331
76	0x3cbcc006	0.023040783
77	0x3e022c8c	0.12712306
78	0xbe6b1c40	-0.22959995
79	0xbec99c89	-0.3937724
80	0x3f486274	0.7827523
81	0xbf3c2b8b	-0.7350394
82	0x3ef6b4ca	0.48184806
83	0x3f29b282	0.66288006
84	0x3f325642	0.6966287
85	0xbec966b7	-0.39336178
86	0xbed88487	-0.4228861
87	0x3d5b012c	0.053467914
88	0xbf41e3d6	-0.75738275
89	0x3ca9fead	0.020751322
90	0x3f9955af	1.1979274
91	0x3f4fa91b	0.8111741
92	0xbf18160b	-0.59408635
93	0x3f2000d5	0.6250127
94	0xbe9f3521	-0.31095222
95	0xbf0f434d	-0.5596207
96	0xbe4c07de	-0.19924876
97	0xbea48e70	-0.3213992
98	0x3d54291b	0.051797014
99	0xbdeb889b	-0.11500665
100	0x3ca3de48	0.020003453
101	0xbdeea3a0	-0.11652303
102	0xbea57da3	-0.32322416
103	0x3f8d99b2	1.1062529
104	0xbedd006e	-0.4316439
105	0xbe523aa0	-0.20530176
106	0xbe3123b8	-0.17298782
107	0x3ee797c4	0.45232975
108	0xbeb7fefa	-0.3593672
109	0x3f27a486	0.6548542
110	0xbeb1a2ac	-0.3469442
111	0xbf331080	-0.6994705
112	0x3f801da5	1.0009047
113	0xbf00c4ba	-0.5030018
114	0x3f036172	0.51320565
115	0x3ec8ac80	0.39194107
116	0x3f6d4793	0.9268734
117	0x3ed9c44f	0.42532584
118	0xbf085c07	-0.5326542
119	0xbdd090de	-0.10183881
120	0xbe99463c	-0.29936397
121	0x3f4539d5	0.7704137
122	0x3f7a7650	0.9783678
123	0x3f9f2037	1.2431706
124	0xbeaf35bc	-0.34220684
125	0xbe8fc5dc	-0.28080642
126	0x3f67e30f	0.9058084
127	0x3f32512f	0.69655126
128	0x3f37280a	0.7154547
129	0x3ed3d5d8	0.41374087
130	0x3eb12ae8	0.34603047
131	0xbe81955a	-0.2530926
132	0x3f3612e1	0.71122557
133	0xbea221f1	-0.3166652
134	0x3e79967c	0.24373811
135	0x3f2eb277	0.68241066
136	0xbea9e95a	-0.33185846
137	0xbe889134	-0.2667328
138	0xbea2f69d	-0.31828776
139	0xbe9112ca	-0.28334647
140	0x3d9a0655	0.07520739
141	0x3f095d89	0.5365835
142	0xbe48c3c0	-0.19605923
143	0xbe96f5c5	-0.29484382
144	0x3ed5594b	0.41669688
145	0xbef3181a	-0.47479326
146	0x3eee3764	0.46526635
147	0x3f0f9ee0	0.561018
148	0x3f3f95e3	0.74838084
149	0xbecc79e1	-0.39936736
150	0xbe8fc46b	-0.28079543
151	0xbdbe8f68	-0.09304696
152	0xbf59676c	-0.84923434
153	0x3d0d110b	0.03444008
154	0x3f96d15d	1.1782643
155	0x3f55cf5f	0.8351955
156	0xbe9f65a0	-0.3113222
157	0x3eb9b67f	0.36272046
158	0xbe3c0641	-0.1836176
159	0xbeb29d7d	-0.3488578
160	0x3e8224e1	0.2541876
161	0x3d9f5b29	0.07781059
162	0x3d5cc508	0.05389884
163	0xbce843a8	-0.028352574
164	0x3c21f520	0.0098851025
165	0x3e90b7c4	0.28265202
166	0xbebf1cad	-0.37326565
167	0x3f5788a0	0.8419285
168	0xbef376cb	-0.4755157
169	0xbec864aa	-0.391393
170	0x3a8702b7	0.0010300492
171	0x3e1d758f	0.15376876
172	0xbe503d91	-0.20335986
173	0x3bed7c6a	0.0072474973
174	0xbda5414a	-0.080690935
175	0xbeed7a01	-0.46382144
176	0x3f907051	1.1284276
177	0xbecc5b0d	-0.39913216
178	0x3ecc61aa	0.39918262
179	0x3f2994a8	0.66242456
180	0x3f455526	0.7708305
181	0x3ebd3fc0	0.369627
182	0xbef4c222	-0.47804362
183	0xbe2808f7	-0.1640967
184	0xbeaa96a8	-0.33318067
185	0x3f59d1e0	0.8508587
186	0x3f9bb533	1.2164673
187	0x3f608707	0.87706035
188	0xbe15b730	-0.14620662
189	0xbf195d96	-0.59908426
190	0x3f6c81d1	0.92385584
191	0x3f806126	1.0029647

fc3.bias f4 [3]
0	0xbe3f9d55	-0.18712361
1	0xbe3d895e	-0.18509433
2	0xbdd9e5c6	-0.10639529
